model_weights/w_113.npy (npy, 36992 bytes, 1 tensors)

array f4 [3, 3, 32, 32]
00000000: 3939 fabc 6460 0cbd 29b2 b3bd d767 813d
00000010: e69b 063d 01a6 09bd f804 503a 8204 bc3c
00000020: 6369 073c d67c 95bc c61c 1dbb e2cb b53c
00000030: 766d 09bd 0160 83bc 6e49 3f3d 6720 6f3a
00000040: 6aa9 d73b 4189 67bc ae4d 41bc f198 873c
00000050: afb1 0a3d 5678 f13c 2aa4 52bd 2d1c ecbc
00000060: 4676 873b ec0b 20b9 c99f 15bb d33f 213b
00000070: d89a 1f3d a259 03bd 90b3 a8bc 1933 dbbc
00000080: 39b2 073d 9d87 b2bc dfea 2ebd d27b ad3a
00000090: 3ab3 08ba b24f b539 2dec f0bc 56f3 80bc
000000a0: fe0e 333c 52f9 a13c 6108 50bc b4fc 893a
000000b0: 8eee 0f3c 56b7 9e3b 70c7 43bc 3ec0 d6bc
000000c0: 6816 b6bc 7ca9 b73c 34c0 3abd 636d b5bc
000000d0: 0102 49bc b324 96bc e69c 33bc 4186 12bc
000000e0: 093b 32bb d896 053d 3777 f3bb 9b5c e7bc
000000f0: aedb 1ebd bd4e 753b dce7 cabb b1e6 5bbc
00000100: c2cb 813c 161c 2ebc b686 223d afa6 b73b
00000110: c089 0fbc 2de4 01bd c1ca 19bc e326 9cbc
00000120: c650 093c d47e 8fbc 0b39 bbbc 0c0a 93bc
00000130: c538 303c 559f 2f3b 6cae 28bb a6ed 103d
00000140: 4e03 153c 6a00 bcbc a90c 26bd 7a97 96bb
00000150: c831 a3ba 5da5 caba 5d1a bc3c 6e7c 5e3c
00000160: 30a4 583c cd00 b3bb 3d14 91bc 62a2 0e3c
00000170: 9ff6 933c 1513 13bd af5f a2bc a906 6bbc
00000180: e518 c1bb 9eef 623c 5e12 663c 4c3d 843c
00000190: 1a96 3b3c 1949 1cbc ca82 eaba 624c 143c
000001a0: 60de 373c a5cc 7f3c cb3d 823b 32f6 3fbc
000001b0: d648 6c3b 18d0 6b3c 243e 443a 58b2 383c
000001c0: d99b 383c 7632 0c3c 041e ee3c 1ed2 333d
000001d0: b90a 643c 5133 de3a db44 51bc a300 ca3c
000001e0: 68a5 ba3c 0b71 3ebc 36da 693c 1814 78bc
000001f0: 886d 12bd cd14 89bb 1f2b 203d 69ec 9ebc
00000200: ac6d 023c 41fe 47bc 09d5 d2bb 5ef2 6e3d
00000210: d070 07bc 6c8b 90bc 3fac 99bc 01d8 74bb
00000220: d488 a9bc 9550 4c3c d87b 1abd fc5d ecbb
00000230: 1fff eebc c02e b33c 64c2 ee3b ef37 ddbc
00000240: cc30 803c d687 05bd 1de3 ae3c 1909 fcbc
00000250: c498 6a3c b8ed bf3a 5ea3 18bd 41fb 5abc
00000260: 7ea2 673c a862 c7bc c4df 7dbc f287 e43b
00000270: eeac 033c e506 71bc 9936 113d 2a10 5fbc
00000280: 3e60 09bc 97ba 9fbc 80b0 f7bc 3372 cc3b
00000290: e0b6 08bc bc55 71bd 3912 8fbc 9998 0c3c
000002a0: 99a3 1f3c 7d7f acbc 5620 173d 03bd 87bd
000002b0: 0685 3cbd 0eb0 393d f37e 7f3b 6a61 00bd
000002c0: f1cf 483d c2b9 03bd 0030 2a3c 8df6 8c3c
000002d0: c444 e53c 384a fdbc 87f3 fabb 014c 56bb
000002e0: 6ab7 6d3d a42b 3f3c 5ac8 23bc 2d52 0dbd
000002f0: c9ce 8dba 0d46 72bc 63da 04bd 60d1 a7bc
00000300: 40dd c83b 16f9 ac3c 1912 c0bc c3a6 833c
00000310: 8036 d03b 22cf 933b 62b9 27bc e511 053c
00000320: 498c d9bc 4850 973b 5821 ad3c 59a4 80bb
00000330: d849 02bc cbb4 ecbc ab82 dabb dffc 883c
00000340: 9e5e f1bb 3ec4 9fbc 9f46 343b 02a6 be3c
00000350: 00e3 223d a59c 2c3c 7f18 713a c118 143c
00000360: eb2a 3cbc ab59 d23b 93f1 5c3a 5b71 43bd
00000370: e03a 5cbc e5c1 b53c b6ee 903b 59b2 82bc
00000380: 7870 4f3c 52dc 193c 3bdc 59bd c090 983d
00000390: b872 243d 90e8 c7ba 8865 763d ceed 993c
000003a0: 6561 343c 615e 363c 7b12 a9bc 6835 723c
000003b0: 58db 1b3d e97b ecbc c41a 1f3d 93ba 483c
000003c0: f7aa b1bc ad6b e6bb b52b f13c 09a4 d63c
000003d0: b7b6 9e3d 2caa 82bc 5ecb 86bd 8de4 9f3c
000003e0: c72f a5bc f894 893c 09ef 863c 9b05 273d
000003f0: af9b d53b c161 12bd 7af5 543a 3586 24bc
-0.030544864 -0.034271613 -0.08774216 0.06318634 0.03286352 -0.03360558 0.0007935311 0.022951368
0.008264872 -0.018248003 -0.002397345 0.022191945 -0.033551656 -0.01603699 0.046700887 0.0009121955
0.006581475 -0.014131845 -0.011798305 0.01655242 0.03386086 0.029476326 -0.05142609 -0.028822029
0.0041339723 -0.0001526323 -0.0022830835 0.0024604693 0.03896603 -0.032067902 -0.020593435 -0.026757764
0.03312895 -0.021793181 -0.04270446 0.0013235754 -0.0005214695 0.00034582388 -0.029409492 -0.015741032
0.010928867 0.019772206 -0.01269731 0.0010527582 0.008784903 0.0048436327 -0.011949405 -0.026214715
-0.022227481 0.022419684 -0.045593455 -0.022146886 -0.012268544 -0.018328046 -0.0109627005 -0.008943141
-0.0027195832 0.03261456 -0.007429983 -0.0282424 -0.03878372 0.0037430965 -0.0061921906 -0.0134217
0.01584423 -0.010626813 0.03967925 0.005604587 -0.0087608695 -0.031711746 -0.009386719 -0.019061511
0.008381074 -0.017516531 -0.022854349 -0.017949127 0.010755722 0.002679785 -0.002573873 0.03538289
0.009095026 -0.022949416 -0.040539417 -0.004595694 -0.0012450749 -0.0015460659 0.02296179 0.013579471
0.013222739 -0.005462742 -0.017709846 0.008705707 0.018061934 -0.03590687 -0.019821016 -0.01434485
-0.0058928602 0.0138510745 0.014042465 0.01614251 0.011449361 -0.009538912 -0.0017891761 0.009051414
0.011222452 0.015612756 0.0039746515 -0.011716412 0.0036054156 0.014392875 0.00074860663 0.011272989
0.011267626 0.008556953 0.029067047 0.043901555 0.013918572 0.0016952549 -0.012772764 0.024658507
0.02278395 -0.011623631 0.014273217 -0.0151415095 -0.03574899 -0.004183388 0.039103623 -0.019399839
0.007960718 -0.012206615 -0.006434087 0.058336608 -0.008266643 -0.017644607 -0.018758891 -0.0037360194
-0.020695128 0.012470384 -0.037715763 -0.0072133522 -0.029174386 0.021872878 0.0072863568 -0.02700421
0.015648268 -0.032600246 0.02134853 -0.030766057 0.014318649 0.0014642989 -0.037265174 -0.013365568
0.014137862 -0.024339035 -0.015495244 0.0069742138 0.008036835 -0.014711116 0.03545246 -0.013614694
-0.008384762 -0.019498153 -0.030235529 0.0062391995 -0.008344382 -0.058919653 -0.017464744 0.008581304
0.009743595 -0.021056885 0.036896072 -0.06627848 -0.0460253 0.045333914 0.003898558 -0.0313429
0.049026433 -0.032159574 0.010387421 0.017207408 0.027986892 -0.03091918 -0.0076584253 -0.003269911
0.058036245 0.01166812 -0.009996498 -0.034502197 -0.0010819073 -0.014787209 -0.032434832 -0.02048558
0.0061298907 0.021114867 -0.02344613 0.01607073 0.006354153 0.004510776 -0.01023707 0.008121942
-0.026556151 0.0046177246 0.021134064 -0.003925842 -0.007952176 -0.028894803 -0.006668409 0.01672214
-0.0073660156 -0.019502755 0.0027507914 0.023272518 0.039767265 0.010535394 0.00091970706 0.009039105
-0.011484842 0.0064193807 0.00084283313 -0.047715526 -0.013441771 0.022187183 0.004422988 -0.015954183
0.012661092 0.009390907 -0.053188544 0.07449484 0.040148467 -0.0015251804 0.06015542 0.018790152
0.011009549 0.0111309 -0.020638695 0.014783241 0.03805098 -0.028867679 0.038843885 0.012251514
-0.021687968 -0.007031879 0.029439786 0.026201265 0.07749694 -0.015950285 -0.06581758 0.019518161
-0.020164384 0.016794667 0.016471403 0.04077683 0.006518803 -0.035737757 0.0008123737 -0.010041763
