model_weights/w_140.npy (npy, 110720 bytes, 1 tensors)

array f4 [3, 3, 48, 64]
-0.021415334 -0.031653583 -0.019830951 0.02236549 -0.016184807 -0.0032133304 -0.043430585 -0.022014355
0.036044974 0.019916577 -0.013349732 0.016386531 -0.0049111983 -0.03821156 -0.020366782 -0.02637443
-0.033488967 0.010318913 0.017792013 0.031735215 0.03502776 -0.016008748 0.012706557 -0.0098861735
-0.0059982114 0.0005292354 -0.0060413354 -0.024549779 -0.028331516 -0.0023964455 -0.022101905 -0.03878691
-0.028628757 -0.014969218 0.00032816036 0.0049610105 0.018424379 -0.0034805133 -0.008490695 -0.019802328
-0.016474318 0.013684892 0.04464382 0.0040182075 0.021384843 -0.035688303 -0.0024511483 -0.025799358
0.009805493 0.03818145 0.0136227915 -0.033499382 0.047267884 0.025603244 0.058703873 0.010010606
0.014224511 0.0139718475 0.015074124 0.02520944 0.022496255 0.032141358 -0.02401929 -0.052744724
0.016576817 0.0067731743 -0.027458226 0.016631791 -0.0064473725 0.006837272 -0.054775983 -0.041019954
-0.004939471 0.00323294 -0.01787774 -0.011537735 -0.020114029 0.047426995 0.0003434566 0.0041571683
0.005725593 -0.006184337 -0.0031106302 -0.021432916 -0.011195584 -0.026969459 -0.010768165 0.0054699285
0.018627923 -0.034936924 -0.020378675 0.009608631 0.0339253 0.023992749 -0.046184123 0.022922765
0.011043471 -0.0015425745 0.0011656 -0.006961596 -0.022137268 0.000605934 -0.03027208 -0.018892348
-0.05673774 -0.02688044 0.007300971 0.019544361 0.022177787 -0.0125629185 -0.010016222 0.0005562396
0.013776923 -0.09671685 -0.036760196 -0.020558981 -0.030193303 0.01956669 -0.052925475 0.028857633
0.03972753 -0.009609641 0.017126799 -0.0017833854 0.01484849 0.034504272 0.031809606 -0.012809128
-0.025916582 0.029196763 0.02538436 0.05005509 -0.032350067 0.015358763 -0.011980487 0.005020645
0.014783031 -0.018226044 -0.003908136 0.0039305673 -0.009101784 0.0018192134 0.011884599 0.0054402417
-0.011855205 0.057461556 -0.009786389 -0.0066590724 -0.014283464 -0.0557429 0.01107855 0.0067348126
0.040144634 -0.008542379 -0.01776425 -0.051863473 -0.030803917 0.02378062 0.03064961 0.039586063
-0.013310428 -0.036609046 0.023516411 0.01653516 0.014161311 -0.022215636 -0.048075005 -0.009572324
-0.02899403 0.020921627 0.077468164 -0.052415047 0.016968431 0.030498393 -0.033884138 -0.034579337
-0.02548441 0.008324003 0.06777877 -0.035271198 0.05495451 0.019682875 -0.014734928 -0.049559228
0.047684766 0.004876221 0.093737945 0.038060397 0.018950019 0.00808096 -0.033362024 -0.005083044
-0.044490583 0.030775288 0.032698486 -0.02138593 -0.006869796 -0.008499415 0.023916097 -0.00023889705
0.028812798 0.02282989 -0.01733198 0.0091981515 -0.0022411821 -0.023134485 -0.018947601 -0.040300854
-0.029035188 -0.0033958652 0.010827143 0.005126963 0.0062670223 -0.0056139478 0.015268772 0.04461151
-0.030861141 0.039544553 -0.031106487 -0.026855977 -0.0023299274 0.03223085 0.021578569 -0.021289637
0.0056327614 -0.012832813 0.056587286 -0.040011726 0.011872378 0.0135417925 -0.002811836 0.0244976
-0.038860288 -0.03605267 -0.03938818 -0.026101843 -0.021399476 0.0027524496 -0.034350056 0.085785605
-0.057790127 -0.023087503 0.020092577 0.004463558 0.03239556 -0.02945143 -0.015928514 -0.0068927933
0.014485149 -0.019086083 -0.02706572 -0.0016546372 -0.012670768 0.014421478 -0.022284966 0.07297403
00000000: 366f afbc 30a7 01bd 8574 a2bc d537 b73c
00000010: 0096 84bc bd96 52bb 45e4 31bd 7357 b4bc
00000020: e5a3 133d 1728 a33c d6b8 5abc 0c3d 863c
00000030: 1eee a0bb ba83 1cbd 3dd8 a6bc 300f d8bc
00000040: ba2b 09bd a810 293c 8ec0 913c c9fc 013d
00000050: 4579 0f3d c724 83bc 2a2f 503c 9ef9 21bc
00000060: a58c c4bb 63bc 0a3a 65f6 c5bb 9e1c c9bc
00000070: 7f17 e8bc af0d 1dbb 0e0f b5bc 06df 1ebd
00000080: db86 eabc 7341 75bc f00c ac39 f98f a23b
00000090: b9ee 963c 5319 64bb 8e1c 0bbc 7e38 a2bc
000000a0: 26f5 86bc 9936 603c 70dc 363d 2bab 833b
000000b0: 442f af3c e62d 12bd 72a3 20bb 2d59 d3bc
000000c0: 38a7 203c 2764 1c3d 2132 5f3c a636 09bd
000000d0: f89b 413d e5bd d13c 7973 703d 8603 243c
000000e0: ec0d 693c 2dea 643c 75f9 763c 0784 ce3c
000000f0: 114a b83c a8a6 033d 1ac4 c4bc da0a 58bd
00000100: 1bcc 873c 81f1 dd3b 13f0 e0bc 653f 883c
00000110: 7b44 d3bb 320b e03b c85c 60bd 8a04 28bd
00000120: 49db a1bb bcdf 533b 5774 92bc c508 3dbc
00000130: 2dc6 a4bc cf42 423d f711 b439 db38 883b
00000140: c19d bb3b fba5 cabb b7db 4bbb 1594 afbc
00000150: af6d 37bc 0eef dcbc f56c 30bc 163d b33b
00000160: 9699 983c 051a 0fbd 2ef1 a6bc 856d 1d3c
00000170: 41f5 0a3d 718c c43c 902b 3dbd 86c8 bb3c
00000180: adef 343c 3630 caba 0cc7 983a 1a1e e4bb
00000190: 3759 b5bc 8bd7 1e3a 27fd f7bc 20c4 9abc
000001a0: d565 68bd 5e34 dcbc fc3c ef3b 7f1b a03c
000001b0: 31ae b53c b3d4 4dbc 141b 24bc 9cd0 113a
000001c0: 9ab8 613c 7c13 c6bd dc91 16bd 4f6b a8bc
000001d0: f257 f7bc 534a a03c 62c8 58bd d866 ec3c
000001e0: 56b9 223d c171 1dbc 804d 8c3c 7cc0 e9ba
000001f0: 1547 733c 5a54 0d3d ca4a 023d 60dd 51bc
00000200: 034f d4bc 0d2e ef3c ddf2 cf3c 9106 4d3d
00000210: 8181 04bd 52a3 7b3c ce49 44bc 3984 a43b
00000220: 8734 723c c94e 95bc d20f 80bb fdcb 803b
00000230: a61f 15bc ac72 ee3a 9fb7 423c 0e44 b23b
00000240: 553c 42bc cf5c 6b3d 1757 20bc 5934 dabb
00000250: 3105 6abc ab52 64bd ce82 353c b4af dc3b
00000260: b36e 243d 56f5 0bbc 5586 91bc cb6e 54bd
00000270: 7f58 fcbc 93cf c23c e414 fb3c ff24 223d
00000280: fb13 5abc 5ef3 15bd 7da5 c03c be74 873c
00000290: d804 683c 91fd b5bc 4cea 44bd 3dd5 1cbc
000002a0: e384 edbc d563 ab3c a1a7 9e3d 29b1 56bd
000002b0: 6101 8b3c c4d7 f93c 18ca 0abd 10a3 0dbd
000002c0: aec4 d0bc 6661 083c 99cf 8a3d 8878 10bd
000002d0: fb17 613d fb3d a13c c46a 71bc 9efe 4abd
000002e0: 1a51 433d b5c8 9f3b aef9 bf3d 38e5 1b3d
000002f0: 123d 9b3c 0166 043c 9ea6 08bd aa8f a6bb
00000300: c23b 36bd 751c fc3c d9ee 053d 8c31 afbc
00000310: 071c e1bb 2141 0bbc b1eb c33c 7080 7ab9
00000320: d108 ec3c c005 bb3c ccfb 8dbc d8b3 163c
00000330: cce0 12bb 8884 bdbc 0038 9bbc 8212 25bd
00000340: 34db edbc 2a8d 5ebb 5464 313c 1500 a83b
00000350: 985b cd3b 35f5 b7bb df29 7a3c 8fba 363d
00000360: 81d0 fcbc 78f9 213d 08d3 febc 1101 dcbc
00000370: b2b1 18bb 7f04 043d 8ac5 b03c 9b67 aebc
00000380: 0793 b83b b840 52bc 12c8 673d 56e3 23bd
00000390: 5d84 423c 65de 5d3c c846 38bb 31af c83c
000003a0: f72b 1fbd f7ab 13bd 8055 21bd 88d3 d5bc
000003b0: f44d afbc 7162 343b a5b2 0cbd 5db0 af3d
000003c0: 57b5 6cbd 0122 bdbc 3099 a43c 0a43 923b
000003d0: 35b1 043d 2044 f1bc 847c 82bc f1dc e1bb
000003e0: 1e53 6d3c 6b5a 9cbc eeb8 ddbc 69e0 d8ba
000003f0: 0e99 4fbc 1048 6c3c f68e b6bc 6973 953d
