model_weights/w_152.npy (npy, 41088 bytes, 1 tensors)

array f4 [1, 1, 320, 32]
000000 35 d6 eb bc 8c 7a f6 bb 0a aa 9c 3c f2 0c 5a 3d
       -0.028788665 -0.007521933 0.01912405 0.053235
000010 02 57 f7 bb 85 1d 83 bc 35 49 49 bc 70 04 02 3c
       -0.007548214 -0.016005287 -0.01228552 0.007935628
000020 31 0e 0f bd 56 32 b6 3d 01 4c 2b 3d 12 92 90 bd
       -0.034925643 0.088963196 0.04182053 -0.07059111
000030 4a 89 ed 3c 36 4a 96 bc a6 be fa bc e9 08 66 3c
       0.028996129 -0.018345933 -0.030608486 0.01404021
000040 a3 e6 09 3d 10 aa e7 bc 03 8c c7 3b b8 c5 10 bb
       0.033667218 -0.028279334 0.0060896887 -0.0022090506
000050 bb c7 84 3c 72 36 cc 3c 0d d8 88 3c 55 59 8c bc
       0.01620852 0.024928305 0.016704584 -0.01713244
000060 0c b4 98 bc 25 a8 2a 3c 92 42 6c 3b 18 0f 0d 3c
       -0.01864054 0.010416065 0.0036050421 0.008609556
000070 23 09 96 3d ee c5 1f bd 05 e2 bf bc 2b 27 09 bc
       0.073259614 -0.03900712 -0.023423204 -0.008371155
000080 82 23 f5 ba ee 31 8f 3c 94 bd 56 3c fd af da 3c
       -0.0018702599 0.017479863 0.013106722 0.026695246
000090 09 ff 8a bb d0 90 8e 3b 64 60 04 3d a1 d9 b6 bc
       -0.0042418283 0.004350759 0.032318488 -0.02232057
0000a0 45 20 83 3c 51 d6 92 3c 8b 6a c8 3b cf e0 1b ba
       0.016006598 0.01792446 0.0061162165 -0.000594628
0000b0 bd 54 68 3c a4 4a c0 3c 89 7c a9 3c 79 da af bc
       0.014180359 0.023473091 0.020689266 -0.02146648
0000c0 f3 17 5d bd 77 7d 68 bc 5d 15 5d 3c a4 58 93 bc
       -0.053977918 -0.014190069 0.013493863 -0.017986603
0000d0 e2 96 8a bc 2c c6 42 3d 38 d0 00 bc d7 1f f6 3b
       -0.01691765 0.047552273 -0.007862143 0.00751112
0000e0 54 5d 68 bb d7 0a 42 3d d4 08 e7 3b 52 d9 25 bd
       -0.0035456019 0.04737362 0.007050613 -0.040490456
0000f0 8e 40 2b bd bd 1d 48 bc 5e 81 10 bd 69 10 f0 3c
       -0.04180961 -0.012214121 -0.035279624 0.0293047
000100 55 60 bc 3d f6 7f a0 3b 73 e1 36 3d 74 91 23 3e
       0.091980614 0.0048980666 0.0446486 0.15973455
000110 36 32 8e bc 41 f8 ae bc 2e 3a 25 bd 42 e1 c7 3c
       -0.017357927 -0.021358611 -0.040338688 0.024399403
000120 05 69 94 bd 2f d6 78 3d 25 5b 0d 3d d9 7c b2 3c
       -0.072465934 0.060751136 0.03451075 0.021788048
000130 26 17 af 3d e4 8e 1b bd 39 d1 97 3c 7e fb 9e bc
       0.08549337 -0.037978068 0.018532382 -0.01940703
000140 00 78 2f bd 40 eb cb bc e4 33 cf 3c 7d 2f bb bc
       -0.04283905 -0.02489245 0.025293298 -0.022849793
000150 6d ba 3c 3d a6 ee 56 3b 54 65 d1 3d 53 ff 49 bc
       0.046076227 0.0032796054 0.10224405 -0.01232894
000160 6f bd fa 3c fe 99 70 3d f2 aa 1e 3d 9e 48 87 bd
       0.030607907 0.05874061 0.038737245 -0.066056475
000170 b3 d7 19 be 30 a5 80 bd f3 18 5f bd 10 cf 82 bd
       -0.15023689 -0.06281507 -0.054467153 -0.0638715
000180 47 d6 28 3c 9b f0 a6 bb 86 e6 e9 3c bf 67 97 bc
       0.010304994 -0.0050946004 0.028552305 -0.018482087
000190 66 17 4e 3c a9 10 5c 3c 58 41 60 3d 58 53 ac 3c
       0.012578821 0.0134317065 0.054749817 0.021035835
0001a0 a4 64 91 3d 8d 83 c8 bc f0 b9 37 3d 22 d3 be 3b
       0.07099274 -0.02447679 0.04485506 0.005823509
0001b0 09 63 02 bd bc 2e 2c 3d c5 a1 50 3d 53 ee f0 bb
       -0.03183273 0.042036757 0.050935525 -0.007352629
0001c0 54 88 83 bb ea e1 a4 3c d0 e8 0b bc 94 47 ac 3c
       -0.0040140543 0.020127255 -0.008539394 0.021030225
0001d0 b8 6e 93 bb 89 d1 53 3d 11 a8 a2 3d 3d 2c 9c 3c
       -0.0044992827 0.0517135 0.079422124 0.019064063
0001e0 ae ca 89 3c ff b8 97 3d d6 29 f6 3c 47 50 11 bd
       0.016820278 0.07408332 0.030049246 -0.03547695
0001f0 ff f5 34 3c d3 2b a4 bd 3b b3 1f bd 9c 76 02 3d
       0.011044978 -0.08016171 -0.038989287 0.031851396
000200 7e 75 a9 bd 2b 6b 00 bd 33 c2 4c bc 7e af 8b 3d
       -0.08274363 -0.031352203 -0.012497473 0.06820582
000210 8e d8 98 bc a6 7b e6 bc 4f 73 84 3c cc bb 53 3d
       -0.018657949 -0.028135132 0.016168265 0.05169277
000220 50 c9 8f 3c 4b 66 50 3c ec 82 8b bc 59 c0 0a bd
       0.017552048 0.012719701 -0.017030202 -0.033874843
000230 28 97 b7 3d 13 8d ab 3b 6d 53 84 bc 53 e7 45 3d
       0.08964378 0.005235323 -0.016153062 0.04831631
000240 b2 47 84 3d b9 25 10 bd 95 43 3d bc 35 37 07 bd
       0.06458987 -0.035192225 -0.011551757 -0.033011634
000250 77 ae 5a bc 89 0b 0f ba a7 79 f5 bc f6 d0 69 bd
       -0.01334726 -0.0005456736 -0.029965235 -0.057084046
000260 f7 81 92 3a 07 1f 11 3d be 2b 36 3c 3a 53 f4 3c
       0.0011177649 0.03542998 0.011118827 0.029824842
000270 f9 72 cd 3c ec a0 17 bb c8 49 7e bd 10 f1 5f 3a
       0.025079237 -0.0023136688 -0.062082082 0.0008542696
000280 fd ec 63 ba a4 2d a5 3c 12 ce 9d ba 2b bc e7 bc
       -0.0008694677 0.020163365 -0.0012039563 -0.028287968
000290 a3 2d 80 3c 0f 96 57 3d c5 6b d8 bd 82 17 4a 3e
       0.015646761 0.05263334 -0.105674304 0.1973553
0002a0 ab b0 a2 3d 39 4a 04 bd c6 c2 20 bc 67 dd 94 bc
       0.07943853 -0.032297347 -0.009812063 -0.01817198
0002b0 bd 96 c0 3a d5 50 bb 3d 71 ac 73 bd 8e 6a 4c 3d
       0.0014693361 0.09146277 -0.059490625 0.049906306
0002c0 81 f6 2e 3d 58 33 11 bd 73 a7 ee 3d 70 49 1a 3c
       0.042715553 -0.035449356 0.11653032 0.009416923
0002d0 94 fc 11 3d 70 b9 9f bd f0 e1 e2 bb 7f 23 88 bd
       0.035641268 -0.07799041 -0.0069239065 -0.06647395
0002e0 8e ae 81 bc 31 32 0c 3d f2 3b cc 3c e3 da 25 bc
       -0.015830304 0.034227554 0.024930928 -0.010122987
0002f0 70 19 e8 bc 58 28 db bc aa 03 45 bd 31 be 74 bd
       -0.028332442 -0.026752636 -0.048099197 -0.059751693
000300 de ea f0 bd fd de ba bd d8 37 1e 3c 0d 55 28 3c
       -0.11763547 -0.09124563 0.009656869 0.010274184
000310 5a 9c 95 3d 4d 26 fe 3c 21 0d 07 3d 26 69 88 3a
       0.07305212 0.031024123 0.032971505 0.0010407313
000320 ee ad 14 be ff b1 73 bd f6 a3 29 bc 3d d5 ff 3b
       -0.14519474 -0.059495922 -0.010354033 0.0078074024
000330 d1 81 80 3e a4 ee f5 3d b3 06 27 bb 1d 7a f9 3c
       0.25099042 0.12008408 -0.002548617 0.030453736
000340 e1 cc 14 3e e4 c4 0f bc 79 0d 3c 3d 5f 2f 94 3d
       0.1453128 -0.00877497 0.045911286 0.07235598
000350 66 8e 0e 3d 9e 23 3c bd 69 7c ae 3d 2f 90 1b be
       0.03480377 -0.045932405 0.08519823 -0.1519172
000360 d2 6e 71 bd 32 25 31 be ae 85 d4 bc b0 f9 fd 3d
       -0.058943577 -0.17299345 -0.02594265 0.1240114
000370 65 59 6f 3d eb 16 06 3e 07 46 06 bd 25 b9 f1 bd
       0.058434863 0.1309468 -0.032781627 -0.11802892
000380 d2 78 8b bd e2 ad 10 3e 5f d7 3a 3c 3a 5a b5 bb
       -0.06810154 0.14128831 0.0114038875 -0.0055344375
000390 7d f2 b3 bd ad 41 85 bd f8 25 b9 3d e3 18 d4 3c
       -0.08786485 -0.06506667 0.09040445 0.025890773
0003a0 a3 83 8a 3d 55 ee 10 3d c0 85 87 bd 74 c3 91 bb
       0.06763389 0.03538354 -0.06617308 -0.0044483487
0003b0 eb 00 92 3b 64 c0 4e 3d 5f 15 03 3e a9 db a6 3e
       0.004455676 0.050476447 0.12801121 0.32589462
0003c0 6c 1d e1 bd a2 a1 e7 3d 37 df 4e 3c 12 ce d9 bd
       -0.1099194 0.11310126 0.012626461 -0.10635008
0003d0 78 78 38 bd c2 ad cd 3d 21 b7 7f 3d f2 f7 98 3d
       -0.045036763 0.10042907 0.062430505 0.07469167
0003e0 c4 16 b2 3c da 77 3f 3d 94 88 93 3c 77 e5 3a bd
       0.021739371 0.04674516 0.018009461 -0.04562899
0003f0 a2 a5 22 3e cc de 96 3c 87 bc 9a be 2b a5 ab 3d
       0.15883496 0.018416785 -0.3022196 0.08381113
