model_weights/w_191.npy (npy, 36992 bytes, 1 tensors)

array f4 [3, 3, 32, 32]
00000000: a5c6 8e39 9b2b 1c3d d3bf b2bc bd41 763c
00000010: 8e3c 9b3b b233 ae3d 5dd0 1d3d 9c4c e2bb
00000020: c445 18bb 1ea2 b53c c491 083d ce19 b03c
00000030: 3c09 2c3b b5ce ffbc 47de 0cbd 3e6d 4ebc
00000040: 0200 6f3c af9c c2bd 6796 97ba 380d 32bd
00000050: 9b25 413c 9506 e83b 135d 8ebc 138c e93c
00000060: 1bea 93bc b6ff 60bd 7056 e1ba 301f 99bb
00000070: ca04 37bd 1e56 00bc 5b5e 07bd f62d 2d3c
00000080: ecd3 533c 62a6 7abd 0b64 f4bc 2b8f 76bc
00000090: be96 22bc 39ac a2bc 9f9f 2b3d 51b4 ae3d
000000a0: 07ca 853d a544 2fbd 1b94 2b3b 4952 023c
000000b0: c7fc 38bd 8799 dbbc 3fac 3b3c b405 7fbc
000000c0: 654a e4bc 622e c43d 3c63 57bc 3756 163c
000000d0: 6dca 63bb 692b 79bc f313 59bb 8b00 b5bb
000000e0: ea43 273c 45e6 083b f216 63bd 17ce 8dbd
000000f0: 5ded b43c 4a81 88bd 65cf 873c 27ce 723d
00000100: 7d3e ab3b 3e39 2c3c 4ddb c8bc c8e4 913b
00000110: f72b dcbd 3e3e a0bd f25f 1abd 6f40 1cbd
00000120: b025 f93c 1911 df3c 5657 853c 126e cabc
00000130: 0917 f3bb 0d4d a23c 3d8c 30bc 81e0 513c
00000140: 5cdc bd3c e675 2a3d bfda cb3c 9233 693d
00000150: 751e 2c39 8211 05bd f5bf 9c3b 2aea 38bc
00000160: 98a8 89bc cb18 f4bb 9075 de3c 5c6c fe3b
00000170: 3e2a 2dbd 64c1 94bc 546d 463d 9337 063b
00000180: 1d6c 03bd 957c 01bd 0c88 d4bc 5ecc 303a
00000190: 6705 83bc aca2 fe3b f627 23bd b48f dbba
000001a0: a93e 963b 3aa6 89bc df7c df3b b274 603c
000001b0: 886a 1b3c 97c2 ca38 0faf a4bc 24d5 1f3d
000001c0: 9d06 debc 0258 68bb 24a1 4b3c 0635 83b9
000001d0: 6203 45bc 3548 813c 847a 6abc cfed 0bbc
000001e0: 0f3b 98bc 9282 2dbc 6cf1 f6bc 2e72 8aba
000001f0: ed0a 12bc aaf5 b5bb 2b59 23bc d78c 7f3b
00000200: ccad 9e3c b8ea 3c3d 78fe 7bba 4389 60bc
00000210: 2055 373d fa4a 41bc 64c3 35bd 033f d33b
00000220: eba0 90bc 5875 b1bb 2b31 6a3b 83dd b3bb
00000230: c307 4dbc 49b2 30bc 4f4a 173c cfb7 f4bb
00000240: 40b6 7cbb cee2 a23c 6842 67bc 3b38 aebc
00000250: be46 a2bb 0239 393d 1659 9d3b ddfa 41bc
00000260: 5c1c 01bd c622 d73b 2ee1 b53b 70bc 5bbb
00000270: fa62 17bd 3b89 62bc 7c85 d13c 04c0 81bc
00000280: 2b1c b83c 1b91 9ebb 9564 f6ba d09c 6fbd
00000290: a555 f23b 2e30 8c3b b827 0cbd c210 803c
000002a0: 8846 04bd d2d2 e1bc 6702 fdbc b0b5 043d
000002b0: 62f7 023d 78f4 243b 0fb0 153c 6bca 43bd
000002c0: 37a9 aa3b 2511 8fbb 6027 9f3c 5f0a 0abc
000002d0: 1352 83bc 689a 363c 9e23 243c 765a 85bb
000002e0: ed36 4ebc c707 b03c 1544 17bb c682 213d
000002f0: 066a 20bb 5f21 e8bc b505 7dbd b4c4 08bd
00000300: 8932 a5bc 9fee 153b 9aff 07bd f2d3 6d3d
00000310: 7525 cfbc 7704 a63b 462f 7cbc f4c2 29bd
00000320: 8b5f eaba 662b 773c 2e58 1c3d 5833 c8bc
00000330: 5d4e 41bc 66e9 36bd bc19 a4bd 3340 293d
00000340: 31dc 273b 67a7 d5bc 0a90 3f3c 0846 4abc
00000350: a6ec 263c 5da2 26bc 572e 943c 0fa3 ab3d
00000360: 10b9 aebc 5e91 acbd 68c0 a53c d311 2fbd
00000370: 4401 13bc d885 dc3c 5d7d ad39 6445 7d3b
00000380: 0637 cebc ed00 8cbd 8ea5 40bb 5736 5cba
00000390: 40a9 25bd d5bf 9cbc 6898 31bc 682c 9dbb
000003a0: 109e 42bd 8e10 a63c 7658 1e3c 2d86 3fbc
000003b0: 2823 79bb 1e19 4c3b 298e 25bc 871b e2b9
000003c0: 6561 933c f1f2 3ebd f8f3 3a39 fe51 3bbd
000003d0: 6f40 583b 0630 69bc 0338 bf3c c3a8 b039
000003e0: 2aee cabc 3277 a8bc 8793 f83c b1f5 4abd
000003f0: dabb 57bd a9af af3d 926f a0bc d7f4 ce3b
0.00027232352 0.038127523 -0.021819985 0.015030322 0.0047374433 0.08505954 0.03852879 -0.006906105
-0.0023234943 0.02217203 0.033342138 0.02149668 0.0026250621 -0.031226495 -0.034391668 -0.012599288
0.014587404 -0.09502541 -0.0011565209 -0.043469638 0.011788751 0.0070808628 -0.017378366 0.028509175
-0.018055966 -0.054931365 -0.0017191898 -0.0046729073 -0.0446823 -0.007833032 -0.03304897 0.01057004
0.012928944 -0.06119383 -0.02983286 -0.015048782 -0.009923635 -0.019857513 0.041900273 0.085304864
0.06532674 -0.042790074 0.0026180807 0.007954189 -0.045162942 -0.026806606 0.011454641 -0.015565325
-0.027867505 0.09579159 -0.013146218 0.009175829 -0.0034758106 -0.015208104 -0.0033123463 -0.0055237464
0.010209063 0.0020889204 -0.055441804 -0.06924074 0.02208584 -0.06665285 0.016578386 0.059278633
0.005225955 0.0105116945 -0.024518633 0.0044523217 -0.10750573 -0.07824372 -0.037689157 -0.038147386
0.030413479 0.027229832 0.016276997 -0.024710689 -0.0074185175 0.019812131 -0.010775623 0.012809874
0.023176365 0.041616343 0.02488458 0.056933947 0.00016414544 -0.0324874 0.0047836252 -0.011286298
-0.016804025 -0.0074492446 0.027155668 0.0077643823 -0.042276613 -0.018158622 0.048444107 0.0020479902
-0.032085527 -0.03161295 -0.025943778 0.000674432 -0.015993787 0.007770857 -0.03983303 -0.0016751201
0.0045851064 -0.016802896 0.0068203057 0.013699697 0.009485848 9.668356e-05 -0.020103006 0.039021626
-0.027102763 -0.0035452847 0.012428556 -0.00025025773 -0.012024732 0.015781501 -0.014311437 -0.008540585
-0.018582849 -0.010590212 -0.030144416 -0.0010562593 -0.008913738 -0.005552967 -0.00996999 0.003899386
0.019369982 0.046122283 -0.0009612809 -0.013704601 0.044758916 -0.011797661 -0.044375792 0.0064467206
-0.017654857 -0.0054156 0.0035734873 -0.0054890527 -0.012514058 -0.010784694 0.009234025 -0.0074682008
-0.0038560778 0.01988354 -0.014114954 -0.021267047 -0.004952281 0.045220383 0.0048018796 -0.011839596
-0.031521186 0.0065654246 0.005550525 -0.0033529066 -0.036959626 -0.013826664 0.025576346 -0.01583863
0.022474369 -0.0048390753 -0.0018798286 -0.058499157 0.0073954635 0.0042782044 -0.034217566 0.01563299
-0.032293826 -0.027566347 -0.030884935 0.032399833 0.031974204 0.0025170129 0.009136214 -0.047800463
0.0052081603 -0.0043660575 0.019427955 -0.008425324 -0.016030347 0.011145212 0.010018257 -0.0040696217
-0.0125863375 0.021488084 -0.0023081352 0.039431356 -0.0024477257 -0.028336225 -0.06177302 -0.033390716
-0.020165699 0.0022877825 -0.033202745 0.058063455 -0.025286416 0.00506645 -0.01539213 -0.041445687
-0.0017881257 0.015086031 0.038170032 -0.024438545 -0.011798468 -0.04465618 -0.08012721 0.04132099
0.0025613422 -0.0260808 0.011692056 -0.012345798 0.010188257 -0.010170546 0.018088503 0.0838071
-0.021328479 -0.08426164 0.020233348 -0.042741608 -0.00897247 0.02691929 0.00033090534 0.0038646096
-0.025172722 -0.06836114 -0.0029395553 -0.0008400431 -0.040444613 -0.019134441 -0.010839559 -0.0047965534
-0.04751402 0.020271566 0.009664645 -0.011689705 -0.003801534 0.00311429 -0.010104694 -0.0004312659
0.017990777 -0.046618406 0.00017829228 -0.04573249 0.003299739 -0.014232641 0.023342138 0.00033695073
-0.024771769 -0.02056465 0.030343784 -0.049550716 -0.052669384 0.085784264 -0.01958445 0.0063158083
