model_weights/w_308.npy (npy, 327808 bytes, 1 tensors)

array f4 [1, 1, 320, 256]
-0.051742412 0.008403904 0.019578595 0.03968306 0.0102771865 0.046464257 -0.006507705 -0.06696093
0.03713372 -0.026897393 -0.052806392 0.04695203 0.03728051 -0.00041543134 -0.022286346 -0.019766405
-0.016978318 -0.01601555 -0.0135752885 0.07835659 0.006073443 0.0026335856 0.011760629 -0.02771265
0.03626175 -0.02216414 -0.037742857 0.01834214 0.014431824 -0.0328092 0.021502255 0.0292946
-0.00090403296 -0.018964142 0.0013228597 0.0024190133 -0.0007069693 0.019937217 -0.019508807 0.039052464
-0.02711193 0.06918604 0.018157395 0.02386572 -0.010746752 0.047551192 0.014100649 0.09157075
-0.0031273423 0.043755244 -0.05013718 -0.007865416 0.052657217 -0.04252785 0.05571443 -0.015431038
0.011748657 -0.020115374 0.013364683 -0.08601772 0.010910184 0.030212982 0.0012251947 0.015567121
-0.016947953 0.04153723 -0.048637286 0.0056399168 0.02744378 0.012318735 -0.0066799563 -0.02822535
-0.018890832 -0.006545229 0.043766018 0.0491819 -0.051756248 0.015305719 0.060911316 0.070618354
0.006657798 -0.022450786 0.056744136 0.0024751932 -0.03244883 -0.0047986335 0.0014127779 -0.0043216674
-0.026785051 0.012610754 -0.037927527 -0.061520528 0.022667838 -0.0068836682 -0.0030975551 -0.016826138
0.0035768708 -0.040888123 -0.01656508 0.07249581 0.04053618 7.397346e-05 0.04266037 0.005744817
-0.0072863223 0.027271384 0.023118641 0.051487878 -0.013659081 -0.005545904 -0.032868482 -0.02925637
0.03973508 -0.004197335 -0.066943854 -0.009766411 0.0015828111 0.0244533 0.022541378 -0.029193053
-0.0048457896 0.04661966 0.036734868 0.08614557 0.028965397 -0.0077218725 -0.025584642 -0.012279398
0.008957844 -0.04019653 -0.0099649895 -0.008382958 -0.006156742 0.050016176 -0.031688947 -0.01700472
-0.010833978 0.0022623362 0.073423006 -0.0053818678 0.015427506 0.053420737 -0.0050861356 0.024812777
-0.010169589 -0.0046843756 -0.026884187 -0.012698136 -0.023003824 -0.014874643 -0.00058745575 -0.011921313
-0.012317559 -0.030682331 -1.477732e-06 0.0587597 0.083061196 -0.0027518265 -0.0134264175 -0.010415527
-0.016603507 0.00023846587 0.024433361 -0.016112208 -0.002523541 -0.048351057 0.019214977 -0.02381401
0.0056539075 -0.01687005 0.025199413 -0.025040576 -0.004740795 -0.027033035 0.051042117 0.05618203
0.06579951 -0.038837776 0.016592152 -0.0072373347 -0.0055579077 0.031330794 -0.007949268 -0.012348095
0.0023468153 0.00061914185 0.023001794 0.001604831 0.019131217 0.032376256 -0.059691466 -0.023345454
-0.005484681 -0.060977113 -0.05963365 -0.008307804 -0.035378434 -0.05071873 0.012568937 -0.020699767
0.01746858 0.014183084 -0.02922775 0.003130743 -0.0053596515 -0.03831042 0.01440587 6.54258e-05
0.008506528 -0.0106393015 0.014154494 -0.048603725 0.056035366 -0.04533944 -0.006681065 0.008361008
-0.014337533 -0.018165037 0.0056541124 -0.00876991 0.027971195 -0.0023088385 0.0007603493 -0.016037324
0.024211524 -0.057835083 -0.012991801 0.010659117 -0.023909139 0.0022342948 0.003130316 0.011341061
-0.04047542 0.044847716 -0.010104132 -0.030484445 0.008494435 -0.005171887 0.022086132 0.015680168
-0.010763235 0.024439558 -0.023955237 0.015631864 0.059172757 -0.018316332 0.014235518 -0.017322151
-0.013167379 -0.015393784 0.034261398 0.023780078 0.024083909 0.023426643 -0.008199216 -0.029355539
00000000: daef 53bd 87b0 093c 4a63 a03c b48a 223d
00000010: a561 283c 4e51 3e3d 963e d5bb d022 89bd
00000020: 8719 183d ec57 dcbc 844b 58bd c650 403d
00000030: 73b3 183d 40ce d9b9 db91 b6bc 28ed a1bc
00000040: 1d16 8bbc 0b33 83bc e36a 5ebc 6b79 a03d
00000050: bc03 c73b 3c98 2c3b a7af 403c a405 e3bc
00000060: 3387 143d 9291 b5bc 4198 1abd 4142 963c
00000070: 7573 6c3c f162 06bd 7f25 b03c 3bfb ef3c
00000080: a0fc 6cba b05a 9bbc ce63 ad3a 4f88 1e3b
00000090: e853 39ba 6053 a33c efd0 9fbc 7af5 1f3d
000000a0: d719 debc 69b1 8d3d d1be 943c 0b82 c33c
000000b0: 2513 30bc 0ac5 423d 6906 673c 7289 bb3d
000000c0: 19f4 4cbb b338 333d a55c 4dbd f2dd 00bc
000000d0: 18af 573d af31 2ebd d034 643d 77d2 7cbc
000000e0: 707d 403c ffc8 a4bc 8bf7 5a3c 0f2a b0bd
000000f0: a1c0 323c 3781 f73c b696 a03a 3d0d 7f3c
00000100: 6fd6 8abc f122 2a3d e437 47bd 0dcf b83b
00000110: c7d1 e03c 85d4 493c 89e3 dabb d938 e7bc
00000120: f2c0 9abc 5c79 d6bb ff43 333d f672 493d
00000130: 5cfe 53bd d7c4 7a3c 257e 793d 5ba0 903d
00000140: a829 da3b b6ea b7bc 8a6c 683d da36 223b
00000150: 10e9 04bd db3d 9dbb f62c b93a c69c 8dbb
00000160: 536c dbbc 569d 4e3c e559 1bbd f3fc 7bbd
00000170: e7b1 b93c 6590 e1bb 5a00 4bbb f8d6 89bc
00000180: ef69 6a3b 4e7a 27bd 7eb3 87bc af78 943d
00000190: 4409 263d 3322 9b38 a4bc 2e3d 053f bc3b
000001a0: 1ac2 eebb 3d68 df3c 4e63 bd3c f4e4 523d
000001b0: 57ca 5fbc 6aba b5bb 1aa1 06bd 0eab efbc
000001c0: 40c1 223d cc89 89bb dc19 89bd 4c03 20bc
000001d0: 5476 cf3a 4952 c83c b2a8 b83c 4526 efbc
000001e0: 6ec9 9ebb 42f4 3e3d 4d77 163d 176d b03d
000001f0: d748 ed3c c307 fdbb e296 d1bc 872f 49bc
00000200: ecc3 123c 1ea5 24bd 3244 23bc ad58 09bc
00000210: 7fbe c9bb c3dd 4c3d 45cc 01bd 7c4d 8bbc
00000220: ff80 31bc b443 143b cd5e 963d 615a b0bb
00000230: a6c3 7c3c b4cf 5a3d 99a9 a6bb 2a44 cb3c
00000240: 599e 26bc 647f 99bb 3a3c dcbc d80b 50bc
00000250: 8472 bcbc c6b4 73bc 7dff 19ba 9c51 43bc
00000260: 96cf 49bc 8359 fbbc 7c56 c6b5 03ae 703d
00000270: fd1b aa3d fd57 34bb 7afa 5bbc e3a5 2abc
00000280: 1404 88bc b20c 7a39 7928 c83c c0fd 83bc
00000290: fe61 25bb c20b 46bd ba68 9d3c 9915 c3bc
000002a0: 6a44 b93b 0f33 8abc 006f ce3c e521 cdbc
000002b0: ac58 9bbb 6274 ddbc 8a11 513d 211f 663d
000002c0: e5c1 863d 5c14 1fbd 44ec 873c 2a27 edbb
000002d0: 1c1f b6bb b854 003d a63d 02bc aa4f 4abc
000002e0: 07cd 193b e84d 223a 426e bc3c 3159 d23a
000002f0: 12b9 9c3c f79c 043d 0a7f 74bd f73e bfbc
00000300: d7b8 b3bb 23c3 79bd 6a42 74bd 751d 08bc
00000310: fae8 10bd 71be 4fbd f1ed 4d3c 8f92 a9bc
00000320: 441a 8f3c 2a60 683c 096f efbc 272d 4d3b
00000330: 04a0 afbb 63eb 1cbd 9906 6c3c 3535 8938
00000340: f75e 0b3c 7750 2ebc 40e8 673c b314 47bd
00000350: 5785 653d d9b5 39bd d6ec dabb 9cfc 083c
00000360: f9e7 6abc d8ce 94bc 2246 b93b abaf 0fbc
00000370: d923 e53c e24f 17bb 2e52 473a b560 83bc
00000380: 3f57 c63c 7be4 6cbd 90db 54bc 94a3 2e3c
00000390: 19dd c3bc 3f6d 123b fd25 4d3b dccf 393c
000003a0: 8ec9 25bd 3db2 373d cd8b 25bc 84ba f9bc
000003b0: 3e2c 0b3c ef78 a9bb faed b43c b273 803c
000003c0: 4858 30bc 7835 c83c c63d c4bc 650e 803c
000003d0: 225f 723d 220c 96bc 173c 693c 2fe7 8dbc
000003e0: febb 57bc 3636 7cbc ae55 0c3d 70ce c23c
000003f0: 9e4b c53c 3be9 bf3c 0156 06bc 077b f0bc
