model_weights/w_324.npy (npy, 557184 bytes, 1 tensors)

array f4 [1, 1, 1088, 128]
000000 de 38 5d 3c 01 bb 03 3b 17 52 8b bb a9 6d 1d bc
       0.013502328 0.0020100477 -0.004251729 -0.009608665
000010 4f 65 e1 bb 19 c0 b2 3a 76 bb b4 3b 45 68 09 3d
       -0.006878532 0.0013637572 0.005515511 0.033546705
000020 c7 3d 1f 3d e7 67 10 3b 88 4d 4d bc ff c3 48 bc
       0.038877275 0.0022034587 -0.012530692 -0.01225376
000030 5e dc 13 3b 03 b1 24 3a a7 36 ae bc 62 9e 83 bc
       0.002256177 0.00062824803 -0.021266295 -0.016066734
000040 91 8a 87 bb fe 97 1e 3d c3 21 23 3c 6c b6 bb 3b
       -0.0041363914 0.03871917 0.00995678 0.0057285335
000050 20 a2 e1 3b b8 2a fb 3b 9c c8 2c 3d ad aa 65 3c
       0.006885782 0.0076650046 0.042183504 0.014017743
000060 d3 7e 75 3c e3 ae 27 bd d8 b2 de 3b 01 28 83 3b
       0.0149838505 -0.04093827 0.006796222 0.0040025716
000070 95 7b e1 3b 99 98 06 3c c2 63 1a bc b0 93 03 bc
       0.006881187 0.008215093 -0.009423198 -0.008030817
000080 74 c4 11 3c ba 88 0d bc 7c dc f1 bb 66 dd 3e bc
       0.008896936 -0.008638555 -0.00738102 -0.011649465
000090 95 2c 90 3a 96 db c9 3a 62 96 56 3a 87 de 02 bc
       0.0010999615 0.0015400525 0.0008185861 -0.007987625
0000a0 e5 37 31 3c fd 0d 40 bb 62 f1 6c bc 21 74 c2 3b
       0.010816549 -0.0029305213 -0.014461847 0.005934254
0000b0 cf 60 29 3c c3 a6 16 3d 03 5f a7 bc 5d 85 a1 3a
       0.010338022 0.03678013 -0.020431047 0.001232307
0000c0 b6 af da 3c 86 b5 2e bb ea c7 00 3c a5 8f 1d bb
       0.026695114 -0.002665849 0.007860163 -0.0024041918
0000d0 75 61 04 3c 86 e6 e1 3c 72 51 89 bb 51 28 5e ba
       0.008079876 0.027575742 -0.0041906172 -0.00084746355
0000e0 8a 7f 0d bd bd 23 76 3c 3d 3e d7 3b 15 e8 49 3c
       -0.03454546 0.015023169 0.0065686987 0.012323399
0000f0 7e fb 12 bc bb a3 68 3b 2e 4e 04 3c c7 dc 1d 3b
       -0.008971093 0.0035497982 0.00807528 0.0024087892
000100 1f a4 53 3c e0 75 f0 3c 53 1b 32 3d d6 96 7f 3b
       0.0129175475 0.029353082 0.04348309 0.0038999817
000110 45 a0 05 3c 55 36 20 bc 5b cc 7c 3c a4 18 c3 bc
       0.008155887 -0.009778579 0.0154295815 -0.02381546
000120 70 59 90 bb 0c ad 5f bc ae 9f a4 bb b4 6f b0 b9
       -0.004405193 -0.013652097 -0.005023918 -0.0003365256
000130 88 21 3f bb e9 ca d7 bc 83 ba 16 3b 34 dc 3c 3c
       -0.0029164273 -0.026341872 0.0022999353 0.01152711
000140 14 e5 b8 3b c7 08 d4 3b cc e0 bb 3c 5f 9d 94 3c
       0.0056425426 0.006470773 0.02293434 0.018141447
000150 ee 22 0c 3b 23 b8 a1 bb 13 ca cc 3c 46 2b 9a bc
       0.0021383124 -0.004935281 0.0249987 -0.018819463
000160 20 3f 34 bc 35 58 1c bc fc 05 16 ba 1e 0d 36 3b
       -0.011001378 -0.009542515 -0.00057229376 0.0027778815
000170 e9 df 4a 3c e0 75 ac ba f2 da 05 3c 58 44 ec 3b
       0.012382486 -0.0013157688 0.008169876 0.0072102956
000180 99 c3 e8 3b fe ca 9a 3c 20 a6 d0 3c 83 e1 8b b8
       0.007103395 0.018895622 0.02546984 -6.670041e-05
000190 63 0c 91 bc 0c 81 21 3c 0e 73 9f 3a 3f ec 96 3c
       -0.017706102 0.009857427 0.0012165026 0.018423198
0001a0 f8 cb da 3a 94 c5 26 bc d2 81 4d 3c 8d 98 e3 3b
       0.0016692868 -0.010178942 0.012543159 0.0069456757
0001b0 53 a1 6e 3c 99 6b 6b bc b4 1a 3c bd f0 bc 8d bc
       0.01456483 -0.014368915 -0.045923904 -0.017302006
0001c0 8c 95 a7 bc e6 49 9b 3c e9 fb cb bc 60 92 15 bc
       -0.020457052 0.018956136 -0.024900394 -0.009129137
0001d0 6a b5 ec bb cb 5a b5 bb 37 6c 56 bc db 38 b4 bb
       -0.0072237747 -0.005534505 -0.013087324 -0.0054999418
0001e0 c7 62 bc ba fd ca 87 3c f8 a8 ed 3b 91 e6 3f bc
       -0.00143727 0.016576285 0.0072528087 -0.011712686
0001f0 d7 b6 0b 3b ee b1 8d 3a 24 5b b5 bb 0c ce 33 bc
       0.0021318698 0.0010810473 -0.0055345464 -0.010974418
000200 75 6a 07 b7 f1 24 8e b5 d0 34 2e b5 5a 86 a4 b6
       -8.0714135e-06 -1.0590576e-06 -6.4896903e-07 -4.9032215e-06
000210 89 7d 94 35 f6 b0 86 b5 0a b7 bd 35 87 de 8d 34
       1.1063395e-06 -1.003528e-06 1.4134869e-06 2.6425207e-07
000220 56 dd 86 37 0e b9 69 b6 e4 2a 4b 37 d6 7d 0a b6
       1.6077112e-05 -3.4827422e-06 1.2109729e-05 -2.0636849e-06
000230 1d 8f 34 36 2e e2 34 b6 e0 3d 41 37 28 3b 98 b6
       2.6905393e-06 -2.6953744e-06 1.1518103e-05 -4.5368397e-06
000240 f0 69 0e 37 3f df 63 b4 22 40 15 b6 dd c2 3d b6
       8.488525e-06 -2.1222239e-07 -2.224006e-06 -2.827662e-06
000250 cf 0b cd b6 57 9d 8a b4 b8 94 c7 b6 92 11 c4 b6
       -6.110851e-06 -2.5818983e-07 -5.9479753e-06 -5.8433006e-06
000260 6c 4a 96 35 94 d9 11 b7 34 50 be b4 6b 06 d2 32
       1.119753e-06 -8.693332e-06 -3.5448613e-07 2.4450136e-08
000270 d0 63 5b 36 ef 9f 55 37 31 6b db 36 39 89 62 37
       3.2691642e-06 1.2733027e-05 6.5391873e-06 1.3502599e-05
000280 ed a2 a9 36 f4 3f 8f 36 06 b4 ad b5 17 8c 54 37
       5.0555595e-06 4.269177e-06 -1.2941898e-06 1.2668802e-05
000290 bc 3a cf 36 86 6a bd 34 3d 85 2c 37 35 5f d6 36
       6.1759183e-06 3.52815e-07 1.0283021e-05 6.3887805e-06
0002a0 bd cc cc 36 ae 1a 8f 36 9f 00 79 b7 21 46 b1 37
       6.1035084e-06 4.264838e-06 -1.4841701e-05 2.11327e-05
0002b0 64 5f 71 b6 b1 54 65 b6 25 09 01 37 99 0a d2 36
       -3.5967323e-06 -3.4172956e-06 7.691128e-06 6.2597214e-06
0002c0 f7 f9 04 b7 96 d2 c6 b5 d4 2c 8d b5 45 a2 29 37
       -7.926013e-06 -1.4813438e-06 -1.0518365e-06 1.0110966e-05
0002d0 2e bb 82 36 fe bd 75 b6 86 bf 86 b6 5b c2 35 b6
       3.8960925e-06 -3.6618435e-06 -4.0158075e-06 -2.7084232e-06
0002e0 fb 33 b3 b5 0a e0 81 b6 56 49 26 b7 7b 38 91 b5
       -1.3351668e-06 -3.870581e-06 -9.911446e-06 -1.081978e-06
0002f0 d3 d4 db b6 14 39 a7 36 86 91 73 b5 b7 32 78 b6
       -6.5514846e-06 4.9836326e-06 -9.073632e-07 -3.69844e-06
000300 08 55 ab 36 fb 5a 9c 36 3c 48 19 36 21 5f 4b b7
       5.106096e-06 4.659754e-06 2.2840823e-06 -1.2121892e-05
000310 57 e9 8b 34 f3 a0 55 b6 d8 a9 80 36 1a 15 2d b6
       2.6060545e-07 -3.1833158e-06 3.8344697e-06 -2.5791292e-06
000320 59 49 53 b6 23 a8 6b 35 0d e4 54 37 73 cd ae 36
       -3.1484144e-06 8.7788993e-07 1.2689282e-05 5.2095215e-06
000330 9c da e9 b6 be 8a 5f b6 04 24 e2 b6 d8 68 0a 37
       -6.9693906e-06 -3.3310348e-06 -6.7395176e-06 8.249852e-06
000340 20 3c 01 36 1d e2 d1 b6 9d 3d 86 b6 19 5a 54 b6
       1.9257495e-06 -6.2550084e-06 -4.000684e-06 -3.1642905e-06
000350 ea 3e 2e b6 9a b0 42 37 f5 01 4e b5 55 84 e9 36
       -2.5964641e-06 1.1604419e-05 -7.674383e-07 6.9593466e-06
000360 a7 ed ab 37 35 99 0c b6 7d e5 29 36 10 a2 79 34
       2.0495454e-05 -2.0950804e-06 2.5316542e-06 2.324889e-07
000370 ec 26 b9 36 1a 25 16 35 e9 4c 80 35 a4 11 0a b6
       5.5179607e-06 5.5933344e-07 9.559127e-07 -2.057387e-06
000380 fa 6a 70 b6 ad 83 f4 b6 59 06 5f 37 66 2b 79 b6
       -3.5825055e-06 -7.2870957e-06 1.3293314e-05 -3.7129153e-06
000390 12 29 97 b6 0a f0 98 b2 60 0d 32 35 51 07 24 36
       -4.504932e-06 -1.7804286e-08 6.632963e-07 2.4442163e-06
0003a0 12 66 1b b5 ea 5d 3d 37 ec 7b 99 36 7b 48 12 35
       -5.789053e-07 1.1287144e-05 4.5741817e-06 5.449471e-07
0003b0 0a d0 49 b5 ac 28 fc 35 76 83 6d b7 03 f0 2a b7
       -7.518107e-07 1.87873e-06 -1.4156909e-05 -1.0188672e-05
0003c0 66 1c 2d 37 1f 27 62 35 b0 fb 06 36 1d 78 cc b6
       1.0318216e-05 8.424849e-07 2.0114057e-06 -6.093657e-06
0003d0 81 38 3b b6 7e 98 51 b5 ca 5c b5 b5 0a 52 fa b5
       -2.789806e-06 -7.808047e-07 -1.3512556e-06 -1.8650328e-06
0003e0 e0 17 f5 b5 26 32 36 37 9f 4a 57 35 f3 60 8c 36
       -1.8260871e-06 1.0859721e-05 8.020233e-07 4.1836115e-06
0003f0 bf 2d ca b6 f6 fb 0e 36 2e 25 72 36 ae a1 a5 b6
       -6.0253947e-06 2.130631e-06 3.6082452e-06 -4.936205e-06
