model_weights/w_342.npy (npy, 557184 bytes, 1 tensors)

array f4 [1, 1, 1088, 128]
0.009278892 -0.028049067 -0.017363714 -0.005758273 0.037209544 -0.016267747 0.008954643 0.015317599
0.007373401 0.010099397 -0.012848334 0.021705689 -0.0054438566 0.01617462 -0.006686341 -0.023314863
-0.0011857123 -0.0006513538 0.016088149 0.015262012 -0.0049814014 -0.015081897 0.022934437 -0.013533803
-0.012585947 0.002768092 -0.0101475045 0.0016268014 -0.021922378 -0.00058469316 -0.0048225257 -0.039504055
-0.0034081188 -0.007227124 0.005576762 0.00025237945 -0.033900756 -0.023326792 -0.010349572 0.00024111028
-0.017206566 0.0020814629 0.001462459 0.014989721 -0.024760729 -0.01596258 -0.029725835 0.016598303
-0.011620268 -0.0235622 0.04771202 -0.021241942 -0.013939599 -0.008416314 0.020591734 -0.0026319632
0.012811037 -0.012066369 -0.023439024 0.013942783 0.0247421 -0.012453187 -0.006740101 -0.0032909794
0.012234516 0.00076454034 0.0076083164 -0.016642358 -0.0058679758 -0.02254558 -0.008376995 0.014369191
-0.019787313 0.03368883 0.011733889 -0.01237997 -0.02207063 -0.0054086754 0.0051979925 -0.010662395
0.044366024 0.007090779 0.006179777 -0.00469818 0.0040080477 -0.018534388 -0.017609825 -0.023831742
-0.017572796 0.0051099393 -0.00031852192 0.008536797 -0.01180012 -0.011203812 -0.012578882 -0.0116992155
-0.016517948 -0.01279229 -0.011039477 -0.011250663 -0.016744932 0.0075140763 0.006356835 -0.015863052
0.0146384165 0.0038927132 0.018036436 0.002376039 -0.0018748561 -0.0101190405 0.006244799 0.015278427
0.011249409 -0.016358085 -0.010908924 -0.0022024924 -0.0060132165 -0.026194165 -0.031237349 0.028139006
-0.0067516454 -0.022590697 -0.019917853 0.017136 0.0037999384 -0.0040555703 -0.048072968 0.0040279115
-4.524221e-06 -2.0187263e-06 2.4525848e-06 -3.826786e-06 -8.587758e-07 -4.9127084e-06 -6.5053046e-06 -4.868659e-06
1.7835163e-07 -2.170252e-06 6.9351717e-07 5.430072e-06 5.408403e-06 -5.016542e-06 -1.5724396e-05 -1.3445819e-07
-1.5074538e-06 -6.1237392e-06 4.4335993e-06 -2.6615535e-06 -9.388338e-07 6.036042e-07 1.414669e-06 -1.3455864e-06
8.302025e-07 9.757647e-06 -8.356842e-06 -8.248778e-06 3.6786494e-06 -2.1151368e-06 -6.10949e-06 -6.6335588e-06
4.3682735e-06 7.6288115e-06 -2.3636899e-06 2.1716264e-06 8.643992e-07 1.1139884e-05 -1.9220713e-06 -6.4900896e-06
-5.7402685e-06 -9.14099e-06 -2.786596e-06 1.1490793e-05 -4.8679026e-06 -5.686142e-06 -1.3359549e-05 2.9909795e-06
-4.5477873e-06 -2.4472906e-06 3.0045749e-06 -6.2305153e-06 -1.1309951e-05 -7.3125793e-06 -2.8999182e-06 1.8139153e-06
3.451672e-06 6.0415473e-06 -1.3089566e-06 3.088975e-06 9.204491e-07 3.4273845e-07 1.9721138e-06 -4.930443e-06
2.3445925e-06 7.965883e-06 -3.681035e-06 9.4901925e-06 -6.2793547e-06 4.3177793e-06 5.9343015e-06 3.1050083e-06
-2.9331115e-06 1.3837825e-06 2.083617e-06 -3.8684715e-07 1.2087896e-06 -6.394511e-06 -1.1174022e-06 5.990152e-08
2.6367302e-06 -3.2528187e-06 1.7641214e-05 3.0798863e-06 7.4473263e-07 2.5473926e-06 -3.6333292e-06 -8.697655e-06
-1.5462595e-06 2.7521858e-06 7.4259624e-06 -4.6413434e-06 2.3629016e-06 -3.6553258e-06 -2.3723967e-06 5.058556e-06
-2.6044565e-06 8.7145617e-07 4.5394113e-06 -2.8036823e-06 -5.3594863e-07 2.2404547e-06 -4.631804e-06 -1.8803986e-06
-2.2953895e-06 -1.790666e-06 3.8654703e-06 -1.599576e-06 -7.1082704e-06 -3.7633247e-06 4.2737447e-06 -4.6587698e-07
8.568613e-06 2.2409947e-06 -1.14217255e-05 -2.96051e-06 -3.3958888e-06 -3.2443638e-06 -1.3368098e-05 8.37016e-06
-6.371013e-06 2.099455e-06 -3.2950393e-06 1.3198643e-05 5.034082e-07 1.3799252e-07 -1.3975748e-05 -5.6895133e-06
00000000: 7e06 183c 28c7 e5bc 593e 8ebc e5af bcbb
00000010: 0969 183d f043 85bc 7fb6 123c abf6 7a3c
00000020: 929c f13b f177 253c d281 52bc 21d0 b13c
00000030: 6162 b2bb a380 843c 1819 dbbb d0fe bebc
00000040: e769 9bba 9dbf 2aba 4bcb 833c 850d 7a3c
00000050: 063b a3bb 101a 77bc 00e1 bb3c e2bc 5dbc
00000060: 4a35 4ebc e168 353b b841 26bc 663a d53a
00000070: 8f96 b3bc 1846 19ba 4706 9ebb 01cf 21bd
00000080: bf5a 5fbb 83d1 ecbb 45bd b63b cc51 8439
00000090: 85db 0abd d417 bfbc 4091 29bc 8cd2 7c39
000000a0: c9f4 8cbc 2769 083b fbaf bf3a 7297 753c
000000b0: 03d7 cabc f5c3 82bc 9883 f3bc 2af9 873c
000000c0: f062 3ebc 8405 c1bc ae6d 433d 9503 aebc
000000d0: ea62 64bc 94e4 09bc ffaf a83c 047d 2cbb
000000e0: 62e5 513c 05b2 45bc 3203 c0bc 4570 643c
000000f0: f2af ca3c 7408 4cbc 11dc dcbb 79ad 57bb
00000100: 4873 483c 6f6b 483a 2f4f f93b 8e55 88bc
00000110: 2648 c0bb 82b1 b8bc aa3f 09bc c16c 6b3c
00000120: 0119 a2bc 4cfd 093d 7f3f 403c 5cd5 4abc
00000130: 77cd b4bc 423b b1bb ec53 aa3b 53b1 2ebc
00000140: 26b9 353d c459 e83b ba7f ca3b 31f3 99bb
00000150: f155 833b 6ed5 97bc 7b42 90bc c93a c3bc
00000160: d3f4 8fbc 4771 a73b 4aff a6b9 ecdd 0b3c
00000170: 4a55 41bc 3290 37bc a817 4ebc 11ae 3fbc
00000180: a650 87bc c196 51bc ecde 34bc b354 38bc
00000190: ab2c 89bc a438 f63b ff4c d03b 3bf3 81bc
000001a0: f8d5 6f3c e41c 7f3b 26c1 933c 52b7 1b3b
000001b0: bbbd f5ba 55ca 25bc 2ca1 cc3b 5e52 7a3c
000001c0: 714f 383c 6401 86bc 58bb 32bc b157 10bb
000001d0: 840a c5bb 2595 d6bc 78e5 ffbc c683 e63c
000001e0: e83c ddbb 2010 b9bc c42a a3bc cc60 8c3c
000001f0: 6308 793b 97e4 84bb 29e8 44bd 92fc 833b
00000200: c3ce 97b6 7479 07b6 1697 2436 d767 80b6
00000210: a086 66b5 d8d7 a4b6 2448 dab6 765d a3b6
00000220: ec80 3f34 a5a4 11b6 232a 3a35 f733 b636
00000230: d479 b536 c553 a8b6 e2e7 83b7 965f 10b4
00000240: b853 cab5 857a cdb6 54c4 9436 249d 32b6
00000250: 2b04 7cb5 5d07 2235 a8df bd35 ff99 b4b5
00000260: 15db 5e35 c6b4 2337 5d34 0cb7 3b64 0ab7
00000270: b7de 7636 c6f1 0db6 1f00 cdb6 d695 deb6
00000280: 2f93 9236 fefa ff36 e29f 1eb6 42bc 1136
00000290: 1009 6835 70e5 3a37 effc 00b6 72c5 d9b6
000002a0: 889c c0b6 415c 19b7 5b01 3bb6 95c8 4037
000002b0: f756 a3b6 96cb beb6 d322 60b7 a3b8 4836
000002c0: 3299 98b6 223c 24b6 34a2 4936 b80f d1b6
000002d0: dfbf 3db7 945e f5b6 379c 42b6 a875 f335
000002e0: 46a3 6736 7fb8 ca36 68af afb5 304c 4f36
000002f0: c814 7735 9d01 b834 a858 0436 2f70 a5b6
00000300: cb57 1d36 35a5 0537 b307 77b6 1138 1f37
00000310: 3fb3 d2b6 71e1 9036 431f c736 a35f 5036
00000320: 79d6 44b6 68ba b935 44d4 0b36 deaf cfb4
00000330: b23d a235 6e90 d6b6 a6f9 95b5 35a3 8033
00000340: aef2 3036 004b 5ab6 38fc 9337 0bb0 4e36
00000350: a3e9 4735 dff3 2a36 1fd4 73b6 25ec 11b7
00000360: 1289 cfb5 31b2 3836 882c f936 d6bc 9bb6
00000370: 5792 1e36 054e 75b6 7735 1fb6 aabc a936
00000380: 39c8 2eb6 03ee 6935 3f51 9836 e526 3cb6
00000390: 1cde 0fb5 b85a 1636 e56a 9bb6 0162 fcb5
000003a0: 7e0a 1ab6 d156 f0b5 23b4 8136 03b1 d6b5
000003b0: 9483 eeb6 6d8d 7cb6 3067 8f36 a51d fab4
000003c0: eac1 0f37 ff63 1636 f09f 3fb7 2dad 46b6
000003d0: ede4 63b6 bfb9 59b6 8b47 60b7 906d 0c37
000003e0: 96c6 d5b6 5de4 0c36 5820 5db6 bd6f 5d37
000003f0: f321 0735 182b 1434 6179 6ab7 8ce8 beb6
