model_weights/w_389.npy (npy, 896 bytes, 1 tensors)

array f4 [192]
00000000: 4126 673e 1807 513e 3e36 883e 9d8d eebd
00000010: 0c0c cfbd f50c b13d decc c4be a295 91be
00000020: ddc7 43bd d030 19be 4339 8a3d 405a 063e
00000030: 08b6 e83d 131a 333e cea0 80bd 4b1a 9d3d
00000040: 25f7 e9bc 6efe 76bd ef26 2d3e 2574 213e
00000050: ff5c 713e 2ab4 363e 5581 e73d 3056 cb3e
00000060: b424 52be e6db 0e3f 8ffc 2a3e 4a9a 8ebc
00000070: f53b 363e 6136 1a3e 4e3b d83d ea0d 28bd
00000080: 1102 f4ba b77a 30be b10d b7bb a432 423e
00000090: ec80 5c3e afc1 4fbd 14bf 653d 2b14 ad3d
000000a0: ce49 7b3e 5e35 17be 87b4 3a3e 12ec 853e
000000b0: 2670 af3b fec8 803d 390f 93be c474 32bd
000000c0: 772e bcba d153 7e3e 529b 543e 0f9e 823e
000000d0: c863 57bd 4e38 31be 256c 0abe 3794 f2bc
000000e0: 25da aebd 2bf4 563e 910c ecbd 0afd c5be
000000f0: ad42 2b3e 3cf1 7fbd b4c1 2d3e 280e b3bc
00000100: 6d3d 9c3e 2539 ebbd a6f7 00be b6a8 ecbb
00000110: d87b 963d 57d9 4f3e 146a 59bd 24cb 3836
00000120: 519e a1be 6f7f b53e fde8 6b3e 049a a83d
00000130: e26e a63e 2c5c d93d f788 05bd 3e9f 15be
00000140: 5cff 7f3d d1b6 ce3e cf32 e0bd 7739 d03e
00000150: 1626 0abe ab4d 26bd 61d0 373e cd3f b8bd
00000160: 788e 59be b4ec 983e 90d9 9abe c935 433d
00000170: 2d55 a0be 4a86 c5be 69da b23b 94f7 9b3d
00000180: 7b54 f7bd 1eda 823d 8693 923d a39b 493e
00000190: 9614 c73b 88d6 75bd 72a9 9a3e 6c81 163e
000001a0: 9783 093e 58cf 28be 02d9 3f3d 18af 2c3e
000001b0: dfa6 bf3e 286c 493e b8aa b3bd 9ae3 053e
000001c0: cd1a 493e ec83 c0bd 95d4 fb3b 9f7c 0d3c
000001d0: 73c3 803d d992 09be eef2 f8ba ff38 c83d
000001e0: bf11 4a3e e364 233e 2111 673f af98 b23e
000001f0: a208 823e 7c4d b4bc a34c 74be 59b8 29bd
00000200: b244 4a3e 9829 603e 321a 923e 95f8 4d3e
00000210: 661c adbd 66d0 a8bd 6890 143f aa9c af3e
00000220: 1fc2 3dbe 7ee5 293e f50c 5a3e 0cdb 0fbd
00000230: cf43 2a3d a1f9 16be c8d6 ed3d 5aff 70bd
00000240: 43e2 47be 40a0 8d3d 8ede 893e cbb1 73bd
00000250: 3fa1 553d 29c3 b6be bd64 233d e769 033e
00000260: bbb1 d83c 067f 4fbd af78 023e e302 943d
00000270: d52c efbd d303 593e c405 9e3d 035c 453e
00000280: 31da 1d3e fb7d 193d 7a57 fe3b 565c 123f
00000290: 7c35 f53e a9c0 45be 4e4a 4ebd d473 a43c
000002a0: 7429 1ebe 239e b73e 3fc4 c73e 344f 133e
000002b0: a719 843e b2f3 de3d 0bbe c13d 4ef0 e7be
000002c0: 5901 743e 3098 5ebd deb7 603e a43c 1e3e
000002d0: 0bc7 8c3d a2cb 85be 48e1 8b3e 9fa1 1c3e
000002e0: 0405 263d 6e81 4b3e 9074 3d3e e48b 9fbd
000002f0: 747a 0a3d c315 8b3d db93 6b3d 364a 903e
0.22573186 0.20412862 0.26603884 -0.11648104 -0.1010972 0.086450495 -0.3843755 -0.28434473
-0.047798026 -0.14960027 0.06749203 0.13120365 0.11362845 0.17490415 -0.06280671 0.076710306
-0.02856023 -0.060301237 0.16909383 0.15766962 0.23570631 0.17842165 0.11303965 0.39714193
-0.20521814 0.5580429 0.16697906 -0.017407555 0.1779631 0.15059806 0.105581865 -0.041028894
-0.0018616338 -0.17234312 -0.005586349 0.1896463 0.21533555 -0.05072182 0.05609043 0.08451112
0.24539873 -0.14766452 0.18232928 0.2615667 0.0053539453 0.06288336 -0.2872255 -0.043568388
-0.0014357109 0.24836661 0.20762375 0.25511214 -0.052585393 -0.17306635 -0.13517816 -0.02961169
-0.085377015 0.2099158 -0.11525834 -0.38669616 0.16724654 -0.06248592 0.16968423 -0.021857336
0.30515614 -0.11485509 -0.1259447 -0.0072222603 0.0734784 0.20297752 -0.05307968 2.753638e-06
-0.31566098 0.35448787 0.23038097 0.08232501 0.32506472 0.106132835 -0.032601323 -0.14611527
0.06249939 0.40373853 -0.10947191 0.40668842 -0.13491091 -0.040601414 0.17950584 -0.08996544
-0.21245754 0.2986809 -0.30244112 0.047658715 -0.31314984 -0.38579017 0.0054581654 0.07615581
-0.1207666 0.06389259 0.07157044 0.19688277 0.006075452 -0.060019046 0.30207402 0.14697808
0.13429104 -0.16485345 0.046837814 0.16863668 0.37432 0.19670165 -0.087727964 0.13075104
0.1963913 -0.09400162 0.007685254 0.008635669 0.06287279 -0.13434924 -0.0018993297 0.09776496
0.19733332 0.15956454 0.9026051 0.34882113 0.2539721 -0.022009604 -0.2385736 -0.041435573
0.19752768 0.21890867 0.2853561 0.20114358 -0.08452682 -0.08242874 0.58032846 0.34299213
-0.18531083 0.1659145 0.21294005 -0.03512101 0.041568574 -0.14743663 0.11613232 -0.058837272
-0.19519906 0.06915331 0.26927608 -0.05949573 0.05215573 -0.3569577 0.039890993 0.12833367
0.026451936 -0.05065825 0.1274135 0.07227113 -0.11678473 0.21192865 0.077159435 0.19273381
0.15415265 0.03747366 0.007761893 0.57172143 0.47892368 -0.19311775 -0.05036383 0.020074762
-0.154455 0.35862836 0.3901691 0.14385682 0.2580082 0.10886325 0.09460076 -0.45300525
0.23828639 -0.054344356 0.2194514 0.1545282 0.06873902 -0.26131922 0.27320313 0.15296029
0.040532127 0.19873592 0.18501496 -0.07790354 0.033808187 0.0679126 0.057514053 0.28181618
