model_weights/w_396.npy (npy, 557184 bytes, 1 tensors)

array f4 [1, 1, 1088, 128]
000000 76 88 af 3b d3 dc 0b 3c 04 76 79 3b 01 ec 5a bc
       0.0053568436 0.008536535 0.0038064728 -0.013361932
000010 b1 ed 34 3c 85 c1 c0 bc 84 6f 94 bc e7 de 78 3c
       0.011042998 -0.023529777 -0.018119581 0.015189863
000020 25 fc 5b 3b b3 1c 8a bc 12 8e 49 3c 96 eb 67 3b
       0.0033567038 -0.016859388 0.012301939 0.0035388223
000030 08 6d 54 bc 28 de 2f bb b4 ce 18 3c f7 5c 8b bc
       -0.012965448 -0.0026835296 0.009326626 -0.017012103
000040 54 6a d1 b9 71 bf b1 bc 7f 1b 24 3d ed 6c e9 3b
       -0.00039942807 -0.021697732 0.040065285 0.0071235807
000050 ca 0b 20 3d 4c 4f ca bc 12 93 27 bc 23 6c ad 3c
       0.039073743 -0.024696015 -0.010227935 0.021169728
000060 c4 82 08 bc 06 96 1b 3c e0 f1 af 3c ca ba a1 3a
       -0.008331958 0.009496218 0.02147764 0.0012338993
000070 f7 70 d9 39 79 42 e5 3c 50 91 ac 3b 3c 5a 9f 3c
       0.0004147363 0.027985798 0.005266346 0.019452207
000080 77 2b 66 3c 4e 01 bc 3c 21 94 86 3b 7f 7f 69 bc
       0.014048449 0.02294984 0.004107014 -0.014251589
000090 c7 00 8e bb 26 6a d1 bc da 3f 0f bd f5 84 ec 3c
       -0.0043335888 -0.02556331 -0.034973003 0.028871993
0000a0 c0 06 f6 bb f2 c5 2b 3d 2e 8c f0 3c ad 20 62 3c
       -0.007508129 0.041936822 0.029363718 0.013801736
0000b0 2c a6 3a bb d6 ac 6f bc 2d 85 80 bb ed 4e 63 bc
       -0.0028480394 -0.01462861 -0.003922126 -0.013873798
0000c0 cf 47 d0 b9 89 51 05 bc 6a 9c 1a bc 44 e2 cf bc
       -0.00039726353 -0.008137115 -0.009436706 -0.025376447
0000d0 3f 42 ab bb 03 3e 22 bc 71 23 8d bb 17 0f b7 bc
       -0.005226403 -0.00990248 -0.0043072035 -0.022346063
0000e0 ca c2 bf ba cb 6a e8 bc f9 be 7c bc a1 9c e2 bc
       -0.0014630195 -0.028371235 -0.015426391 -0.027662577
0000f0 80 78 21 3d 15 0e ad 3c d3 98 a4 bc 6b db f0 3c
       0.03942156 0.021124879 -0.020092404 0.029401502
000100 f7 be 80 ba 3c e0 d6 39 e9 6c 52 3b 1e 48 99 bc
       -0.0009822537 0.00040984328 0.0032108373 -0.018711146
000110 de 71 8d 3c 03 66 0c bc 6e 55 05 bc 89 10 10 3c
       0.01726621 -0.008569243 -0.008138044 0.008793005
000120 93 5f aa bc 29 c5 47 3d b5 39 90 3c 8c c7 be 3c
       -0.020797526 0.04877201 0.017605642 0.02328851
000130 c4 1e e6 b9 93 de 41 3c ce 50 1e 3c a2 14 9e 3d
       -0.0004389194 0.011832851 0.00966282 0.07718779
000140 17 94 1b bc 2e f0 7b bc 87 21 8a bb c2 70 94 bb
       -0.009495757 -0.0153770875 -0.0042154226 -0.0045300433
000150 ef 33 6d 3c 89 b3 94 bc 98 2c 09 bc 0e e1 25 ba
       0.014477714 -0.018152015 -0.008372448 -0.0006327786
000160 a3 a1 10 bd 18 fc 0c 3d 80 4c f0 bc 58 68 e5 bb
       -0.0353104 0.034420103 -0.029333353 -0.007000964
000170 50 c8 80 3a 85 98 91 bc 8c ff 2f bc dc ad 01 3d
       0.0009825323 -0.017772922 -0.0107420795 0.031659946
000180 28 92 c8 3c 3e 70 1a 3d d7 a4 2a 3d 80 5b 86 bc
       0.024483755 0.0377047 0.04166111 -0.016401052
000190 58 7a a4 3b be 63 64 3c cd d8 d1 3b 0c db ba bc
       0.0050194673 0.013939796 0.0064040185 -0.022809528
0001a0 00 79 67 bc d3 2b 92 bc e5 80 42 3c 4f 02 da bb
       -0.01412797 -0.017843163 0.011871551 -0.0066531072
0001b0 8c 7d 0d 3c 74 98 44 3c a7 70 07 bd 35 8a ad 3c
       0.00863589 0.011999238 -0.033066418 0.021184066
0001c0 59 ef 17 3d 79 c6 9e 3b 54 6d dd 3b bb b2 c1 3a
       0.037093494 0.004845437 0.0067574177 0.0014777997
0001d0 7b 98 20 bc 27 c0 f7 bb 46 51 b4 3a 1e fb 12 3d
       -0.009801979 -0.007560748 0.0013757132 0.035884015
0001e0 07 e4 1d 3d ee c9 b9 bc 01 d1 72 3c 31 52 b8 3c
       0.038547542 -0.022679295 0.014820338 0.02250013
0001f0 03 ae 04 3d 15 f9 53 3c 39 5e 14 bb ab 6c 60 bc
       0.032392513 0.012937804 -0.002263917 -0.013697783
000200 82 43 2b bc f1 af 07 3d 39 f4 e6 bc ef 95 03 bc
       -0.010453107 0.033126775 -0.028192626 -0.008031352
000210 bb 98 1a bc 68 83 f8 ba d5 e5 8a bc af 1c 8d 3c
       -0.009435828 -0.001896006 -0.016955296 0.017225591
000220 1c e3 09 bd 16 e7 07 bc 6b 4f 9c bb 88 f0 44 3c
       -0.033663854 -0.008294841 -0.0047702095 0.012020238
000230 9b 2c 8e bc 2d 4c 01 bd d9 22 b8 bc e5 44 75 bb
       -0.017355254 -0.031566788 -0.022477554 -0.0037425098
000240 e0 63 7d 3d ae 20 35 3d 35 05 3e bb ea 8e 82 3b
       0.061862826 0.04422062 -0.0028994803 0.003984322
000250 48 f0 fa ba ae a4 a2 3b b1 b7 1e bd 20 c9 7d 39
       -0.0019145096 0.004963479 -0.0387494 0.00024202885
000260 f9 ed f2 bb ed 70 5d bc 13 ba 6b 3c 9a 55 13 bd
       -0.0074136225 -0.013515693 0.014387625 -0.035970308
000270 d5 04 16 bd 5d ca 97 3c 31 75 08 bd e2 91 87 bc
       -0.036625702 0.018529112 -0.033314887 -0.016549055
000280 8d 9a 4b 3c 3b de 15 3d 21 cc bf 3a e1 e8 12 bb
       0.0124269845 0.03658889 0.0014632979 -0.0022416639
000290 01 ec 1b bd 84 e6 0a bd 84 5c 24 bd 99 1a 50 3c
       -0.038066868 -0.033911243 -0.040127292 0.012701654
0002a0 4f 9e 20 3c 15 9b ea bc ea 95 4b bc fb 8b ca bb
       0.009803369 -0.028638402 -0.012425879 -0.0061812378
0002b0 1e 38 ab 3c 76 9b 22 bc ee d4 02 bd 88 8e 19 36
       0.020900782 -0.00992476 -0.031941347 2.288174e-06
0002c0 da 8b 21 3c 8b 4a 4a 3c 53 0d ec 3b 4d 0e 08 bb
       0.009860003 0.012346874 0.007203737 -0.0020760477
0002d0 48 5c a1 3a e8 a1 b0 bc 7c 29 2b 3c 14 e7 cc 3c
       0.0012310827 -0.021561578 0.010446902 0.02501253
0002e0 e6 07 3f 3b 01 65 30 bd 4d d9 0c 3b 68 c8 52 bb
       0.0029148995 -0.043065075 0.0021491826 -0.0032162908
0002f0 df be 86 3c 6b 4b 98 3c c9 0a b5 3c b6 1e 18 bd
       0.016448436 0.01859065 0.02209987 -0.037138663
000300 2e 9b 90 bc 6b 0b c6 3c e2 5d ab bc 49 82 69 bd
       -0.01765212 0.024175366 -0.02091879 -0.057009015
000310 50 ee 14 bc 02 a3 18 3d e9 dc 0f bc b1 ec eb 3c
       -0.009090021 0.03726483 -0.008780696 0.028799387
000320 32 6f 97 b8 bd 50 a1 3c 9d 3a db bb a5 1f 92 ba
       -7.220953e-05 0.01969182 -0.006690337 -0.0011148347
000330 2b 33 9c bb e2 1a 07 bd 19 b9 3c 3d 2c 8e 93 3b
       -0.004766842 -0.03298462 0.04607496 0.004503032
000340 13 fa 13 3b 5f f7 15 bc 8c a6 d2 3c 02 0e c9 bc
       0.0022579476 -0.009153216 0.025714181 -0.024542812
000350 93 94 28 bd ee 6e 26 3c 9c 6f 29 3c 5d 79 8d bd
       -0.041157316 0.010158284 0.010341551 -0.06907914
000360 c8 72 6b 3d e0 57 9d bc 58 ba e0 bc 3b 2f 92 3b
       0.05748251 -0.019206941 -0.027432606 0.0044611967
000370 aa e1 91 bc 79 3f c7 bc 2c 8e 6e bd bc 8d 20 bd
       -0.0178078 -0.024322258 -0.058241054 -0.03919767
000380 c8 aa 51 bc 3b 32 0a bd 62 91 92 3d 6e 5e ab ba
       -0.012797065 -0.03373931 0.07156636 -0.0013074407
000390 5f cf 11 bd 4f 1b 7e bb ff 75 ef 3c 52 04 0c 3c
       -0.035598155 -0.0038773601 0.02923107 0.008545952
0003a0 42 f3 a0 bb f9 d4 69 3b 43 0c 5d bc f9 d5 7f 3a
       -0.004911811 0.003567992 -0.013491693 0.00097593624
0003b0 79 e0 e4 ba c1 8a b5 3b 8a 17 a2 bc 9a 4a 0f 3b
       -0.0017461918 0.0055402224 -0.019786615 0.0021864534
0003c0 b9 85 00 bd 62 05 f8 bb ed 9d 97 bc 65 75 40 bc
       -0.031377528 -0.007569001 -0.018507922 -0.011746739
0003d0 c7 af 24 3d 0e f9 ac 3c cc 49 69 3c f9 d0 71 bd
       0.040206697 0.021114852 0.014238786 -0.059037182
0003e0 7c aa 5d bd da e3 11 bc 73 53 3c bd 91 ba 8d bc
       -0.054117665 -0.008904422 -0.04597802 -0.017300876
0003f0 51 db 2d 3b 94 14 33 bc ef d3 54 bd de 14 18 bd
       0.0026528428 -0.010930199 -0.051959928 -0.037129276
