model_weights/w_398.npy (npy, 640 bytes, 1 tensors)

array f4 [128]
000000 53 b2 f9 3e 83 e7 a7 3d d5 e6 a1 3e b9 6e 39 3f
       0.48768863 0.08198454 0.31621423 0.72434574
000010 43 1e 1a 3f e7 ef 6d 3e 23 70 64 be e1 af 9e 3e
       0.60202426 0.23236047 -0.22308402 0.3099356
000020 97 4b a4 3e d2 85 55 3e 25 41 44 3e ca be a8 3e
       0.3208892 0.2085183 0.19165476 0.3295806
000030 cf 06 da 3d 59 3e fe 3e f8 59 c9 be 6a c2 ea bc
       0.1064583 0.49656942 -0.39326453 -0.028657157
000040 f6 99 b6 3d c8 21 52 3c 06 5b 24 3f 15 00 9c 3e
       0.089160845 0.012825437 0.6420139 0.30468813
000050 38 19 48 3f 6d 79 b5 3e c0 77 ae 3e 49 b3 45 3e
       0.7816348 0.35444203 0.34075737 0.19306673
000060 2e 0f 20 3c 96 12 63 3e 10 c2 f2 3d 85 40 3b bd
       0.009769244 0.22175059 0.11853421 -0.045715827
000070 15 95 44 3e 2c 9b 9b 3e ad a8 49 bd 2c 46 eb 3e
       0.19197495 0.30391824 -0.049233127 0.45951974
000080 2f 44 a2 3e 96 37 31 3e 89 90 8b 3e 7b bb 1e be
       0.31692645 0.1730636 0.2725871 -0.15501206
000090 5b 9b ed 3e 29 2d a6 3e af 88 55 3e 8a d0 ed 3e
       0.4640759 0.3245633 0.20852922 0.46448165
0000a0 25 ec 9b 3e 10 73 51 3f 10 4c 62 bd 92 f3 93 bc
       0.304536 0.81816196 -0.05524832 -0.01806048
0000b0 8a cd 8b 3e d6 04 4c 3e b8 42 19 3e f3 fa f4 3e
       0.2730525 0.1992372 0.14966857 0.4784771
0000c0 df 06 67 3d 06 6d a0 3d b1 f3 3e 3e 6e 93 00 bc
       0.056403037 0.078332946 0.18647648 -0.00784765
0000d0 11 bc f0 bd ef c1 23 be 5b 5f 5e 3e 27 96 42 3e
       -0.11754621 -0.15991949 0.21716063 0.19002591
0000e0 cf ad b1 3e 4a b3 b2 3e 6e 68 24 3d fa a4 88 3e
       0.34702918 0.34902412 0.040138654 0.26688367
0000f0 44 3b dd 3e e7 89 5a 3e 2c 3e 13 3e 80 ec 8f 3e
       0.4320928 0.21341668 0.14379185 0.28110123
000100 5a 07 98 3e 8e 74 8b be fa 09 b5 3e 13 cf 35 3e
       0.2969311 -0.27237362 0.35359174 0.17754774
000110 42 9d 94 3e 09 06 eb bc 47 bc 06 3f bd 2c d4 be
       0.29026228 -0.028689401 0.5263104 -0.41440383
000120 86 2d 05 bd c4 40 d4 3e 5c b8 ba 3e 19 06 dd 3d
       -0.032514118 0.41455662 0.3646878 0.10792179
000130 7d 5c 89 3d 0a c5 91 3e 39 3d 8a 3e ed ea 49 3e
       0.06707094 0.2847064 0.26999834 0.19718523
000140 a3 4f 0d 3f 67 1f 0d 3f 4e dc c6 3d 73 a0 74 3c
       0.5519964 0.5512604 0.097099885 0.014930832
000150 c6 4a a7 3e 7b c8 47 3e db 09 c3 3e ac 0d 83 bd
       0.32674235 0.19510071 0.38093457 -0.06399092
000160 1a 64 e9 bd e7 00 09 3f 60 6e 0f 3f 45 75 87 3e
       -0.11396046 0.53517 0.56027794 0.26456657
000170 4e 64 1a 3e 65 d8 a5 bd 85 9a 3a 3f 59 22 9a 3e
       0.15077326 -0.080979146 0.7289203 0.3010433
000180 60 c6 dd 3e 13 c6 f0 3e 74 cb ad 3c 16 4c d4 be
       0.4331541 0.4702612 0.021215178 -0.414643
000190 24 07 e0 3d 06 ea 05 3e db 09 d0 3e 5b 06 c8 3e
       0.10938862 0.13077554 0.4063252 0.3906735
0001a0 8c b8 bb 3c ce 90 92 3e 76 51 8a 3e c7 9c 98 3e
       0.022915147 0.28626102 0.27015275 0.29807112
0001b0 9d 42 55 3e bc 70 a5 3e e8 8d d9 3e ee 27 00 3f
       0.20826192 0.32312572 0.42491078 0.5006093
0001c0 42 44 d3 3d b3 4c cf 3e 53 05 e4 3e 2a 82 2a 3e
       0.103157535 0.40488204 0.44535312 0.16651216
0001d0 7e a1 a4 3e bc 1e 68 3e e6 f6 da 3e 69 c5 f0 3c
       0.3215446 0.22667974 0.42766494 0.029391007
0001e0 ff b3 a5 3d 6d 00 e9 3e f7 72 da 3e bf 55 61 3e
       0.08090972 0.45508137 0.42665836 0.22005366
0001f0 37 2f 4f 3e 6c bf aa bc e5 2e 3f 3e fb 81 22 3e
       0.20232855 -0.02084323 0.18670233 0.15869896
