model_weights/w_400.npy (npy, 573568 bytes, 1 tensors)

array f4 [1, 7, 128, 160]
0.004993236 -0.019667815 -0.0063611222 0.010740923 0.0061656265 -0.021206656 0.016370133 -0.017690169
0.00038329102 0.01168952 0.012512187 -0.009151679 0.017678415 -0.0047331443 0.002577942 0.01379336
0.010485131 0.011622433 0.0036001382 0.013476663 -0.0043065576 0.02449803 -0.047393385 0.008056618
0.0014589306 -0.015200671 -0.026576148 -0.027327947 -0.00397508 0.01901741 -0.075083695 0.008187062
-0.00029055585 -0.010023085 -0.01016085 -0.0022416704 -0.025946086 0.053222097 -0.0001653254 -0.009612431
-0.0062280674 -0.03573484 0.0033623367 0.027150404 -0.010780492 0.006695029 0.014805406 0.02136172
-0.0069275284 0.014983817 -0.011882057 -0.027516829 0.019929461 -0.0019491521 0.02409916 -0.08749867
0.030969586 -0.005272236 0.010188571 -0.01886006 0.01111153 0.030365 -0.022961034 -0.020614818
-0.028541496 -0.0038247996 -0.020876624 0.013618168 -0.02098944 0.0062872143 -0.01034164 0.044005863
0.027990282 0.0034922378 0.006100936 -0.013555939 0.01312745 -0.044698447 -0.0047826553 -0.020464964
-0.01524338 0.05991399 0.030867094 -0.013010645 -0.0005459413 -0.00066753046 0.012017888 -0.022457873
0.0013120997 -0.011502724 0.010419057 0.015441811 -0.018334175 0.0014200682 -0.014232107 0.044286013
-0.02443799 0.044572294 0.011673551 -0.017390741 0.0136919 0.0011878507 -0.012616483 -0.0032011431
0.07015773 0.05676296 -0.04504943 0.0001598664 -0.014241675 -0.0043313014 0.00096001755 -0.011414538
-0.022127667 0.07225987 0.038134478 -0.022302829 -0.011540005 -0.013225477 -0.03310515 -0.004616539
0.00054446916 0.026843745 -0.019182565 0.0033943525 -0.0015487788 0.0047716103 0.025833163 -0.028441714
-0.024827626 -0.029095856 -0.020660551 -0.04473704 0.004138998 0.022543212 0.012698739 -0.027266068
0.0061695487 -0.05314544 0.010101243 0.0080222115 0.03426832 0.044662815 -0.013896238 -0.0057781604
-0.0054641175 0.006629261 0.008446744 -0.012695696 -0.022912776 -0.012336993 0.017332088 0.00016275476
-0.009448912 -0.011734407 0.009450249 -0.021733116 0.05481763 0.033990018 -0.0051589245 0.0053765923
-0.04236017 0.0037899213 -0.022736825 -0.0035405483 -0.035645377 0.037285727 0.039242167 -0.023635304
-0.012547857 0.0066166874 0.014717561 0.01332085 0.012223947 0.012720896 0.014329007 -0.022882087
0.037551478 0.006247448 -0.038601108 -0.0096345255 0.0007460867 -0.013490186 0.01894206 0.00588563
0.048073407 0.023287866 0.0025063127 -0.05407415 -0.026279537 -0.006539734 0.015404211 -0.009619187
-0.031725477 0.0213531 0.014676516 0.08528078 0.011385599 -0.019667653 0.018674491 -0.01018424
-0.049733456 -0.03163629 0.016803669 -0.021119392 -0.008200985 -0.0038960828 -0.018437125 -0.04415284
0.028412636 -0.024279812 -0.004786117 -0.037091028 -0.0012470839 0.012330869 -0.0045291474 -0.019795772
0.0036929746 -0.005624903 0.006995337 -0.035849802 -0.087156266 0.0036402787 -0.031261355 0.0026249697
-0.0069521675 -0.026264854 -0.0487643 0.030994108 0.039705846 -0.008260687 -0.0043377182 0.032286294
0.027629139 -0.025653102 -0.010840652 -0.012420413 -0.013619472 0.0559392 -0.00042898496 -0.04436227
-0.02215334 -0.016710136 0.025228979 0.058958773 -0.0036722193 -0.05598395 0.06739134 0.028745271
0.009016746 0.0035339845 0.019167973 -0.03519851 0.05308418 0.0059736986 -0.010079267 0.021194926
00000000: 4d9e a33b 661e a1bc f670 d0bb b2fa 2f3c
00000010: 0609 ca3b 95b9 adbc a81a 863c f9ea 90bc
00000020: 73f4 c839 6785 3f3c eaff 4c3c edf0 15bc
00000030: 53d2 903c 7e18 9bbb b1f2 283b 8cfd 613c
00000040: d4c9 2b3c 046c 3e3c 4cf0 6b3b 39cd 5c3c
00000050: 061e 8dbb 18b0 c83c 911f 42bd e8ff 033c
00000060: 9639 bf3a 3c0c 79bc 39b6 d9bc dcde dfbc
00000070: 6341 82bb 66ca 9b3c 7bc5 99bd 0723 063c
00000080: bf55 98b9 de37 24bc b279 26bc fde8 12bb
00000090: e38c d4bc 6aff 593d 335b 2db9 757d 1dbc
000000a0: d114 ccbb b25e 12bd a65a 5c3b 866a de3c
000000b0: a9a0 30bc f961 db3b 6092 723c c6fe ae3c
000000c0: 5200 e3bb af7e 753c f6ac 42bc f96a e1bc
000000d0: 1c43 a33c b17a ffba 9a6b c53c 8132 b3bd
000000e0: eeb3 fd3c b9c2 acbb f7ed 263c 6a80 9abc
000000f0: 220d 363c 05c0 f83c c718 bcbc 68e0 a8bc
00000100: dbcf e9bc 7da9 7abb 7405 abbc bd1e 5f3c
00000110: 0cf2 abbc fa04 ce3b fb6f 29bc 7e3f 343d
00000120: e04b e53c 07de 643b 5cea c73b bb19 5ebc
00000130: 8414 573c b815 37bd d2b7 9cbb 24a6 a7bc
00000140: 5fbf 79bc 5f68 753d fddc fc3c 9a2a 55bc
00000150: 801d 0fba 36fd 2eba ade6 443c 93f9 b7bc
00000160: c3fa ab3a ec75 3cbc b1b4 2a3c a6ff 7c3c
00000170: 8d31 96bc 9521 ba3a c92d 69bc 4065 353d
00000180: 2e32 c8bc 7091 363d 6c42 3f3c 0777 8ebc
00000190: fe53 603c a8b1 9b3a 5db5 4ebc 45ca 51bb
000001a0: dbae 8f3d 4780 683d c085 38bd cfa1 2739
000001b0: ea55 69bc 97ed 8dbb b0a9 7b3a 0b04 3bbc
000001c0: 1545 b5bc fcfc 933d e632 1c3d 6cb4 b6bc
000001d0: 4a12 3dbc acaf 58bc 4499 07bd 5646 97bb
000001e0: b5ba 0e3a 6ae7 db3c c124 9dbc c973 5e3b
000001f0: 6500 cbba 2b5b 9c3b 12a0 d33c 99fe e8bc
00000200: 4e63 cbbc 6f5a eebc 5140 a9bc 303e 37bd
00000210: 6fa0 873b 8bac b83c 5f0e 503c 175d dfbc
00000220: ed29 ca3b 08af 59bd af7f 253c 986f 033c
00000230: f05c 0c3d 5bf0 363d 0cad 63bc b956 bdbb
00000240: 570c b3bb 463a d93b 3664 0a3c 9c01 50bc
00000250: 93b3 bbbc 1921 4abc 06fc 8d3c 26a9 2a39
00000260: 9ccf 1abc ac41 40bc 38d5 1a3c a609 b2bc
00000270: 7488 603d 1e39 0b3d 320c a9bb 202e b03b
00000280: dc81 2dbd 5460 783b 9442 babc 8b08 68bb
00000290: e300 12bd ebb8 183d 65bc 203d d39e c1bc
000002a0: 8795 4dbc ccd0 d83b ed21 713c b23f 5a3c
000002b0: f346 483c 4e6b 503c 36c4 6a3c 3773 bbbc
000002c0: 94cf 193d 64b7 cc3b 321c 1ebd 21da 1dbc
000002d0: 0895 433a f105 5dbc 612c 9b3c 3edc c03b
000002e0: 9fe8 443d 32c6 be3c f340 243b db7c 5dbd
000002f0: 2f48 d7bc 444b d6bb f261 7c3c cb99 1dbc
00000300: 93f2 01bd b2ec ae3c c575 703c b1a7 ae3d
00000310: aa8a 3a3c 0f1e a1bc 3ffb 983c ccdb 26bc
00000320: 4fb5 4bbd 0e95 01bd d9a7 893c 9302 adbc
00000330: 6d5d 06bc 6c55 7fbb 7409 97bc 9cd9 34bd
00000340: 9ec1 e83c 75e6 c6bc dcd4 9cbb c3ec 17bd
00000350: 3175 a3ba 6a07 4a3c 3e69 94bb be2a a2bc
00000360: d505 723b 1b51 b8bb 2439 e53b 3ed7 12bd
00000370: fc7e b2bd be91 6e3b e80b 00bd af07 2c3b
00000380: 02cf e3bb 6429 d7bc 13bd 47bd 5be7 fd3c
00000390: 99a2 223d d557 07bc 6b23 8ebb a23e 043d
000003a0: 8156 e23c 7426 d2bc fd9c 31bc fd7e 4bbc
000003b0: 3524 5fbc 8120 653d 63e9 e0b9 36b5 35bd
000003c0: ec7a b5bc b2e3 88bc 01ad ce3c c17e 713d
000003d0: 9ea9 70bb 6d4f 65bd 7904 8a3d 347b eb3c
000003e0: f9ba 133c 6c9a 673b 2706 9d3c 502c 10bd
000003f0: cc6e 593d 04bf c33b 8323 25bc fba0 ad3c
