model_weights/w_423.npy (npy, 860288 bytes, 1 tensors)

array f4 [7, 1, 160, 192]
0	0x3b95d282	0.0045722136
1	0xbad64263	-0.0016346689
2	0xbc83ada9	-0.016074019
3	0x3b7f1d26	0.0038927286
4	0xbc6f4b58	-0.014605366
5	0xbc6a21c5	-0.014290278
6	0xbd09f07f	-0.03367662
7	0x3cbf9394	0.0233858
8	0xbad31e5d	-0.0016107071
9	0xbbb035d0	-0.0053775087
10	0xbd1ae183	-0.03781272
11	0xbc893da7	-0.016753031
12	0x3d03bf3d	0.0321648
13	0xbbb07685	-0.0053852224
14	0xbca437ea	-0.020046193
15	0xbd03c475	-0.032169778
16	0x3ca2a7b7	0.019855363
17	0xbcb3ecd5	-0.021963516
18	0xbce3d368	-0.027810767
19	0x3b7c1b6c	0.0038468493
20	0x3c36cc39	0.011157089
21	0xbc714c0f	-0.014727606
22	0xbc138ae4	-0.009005282
23	0xbb97cfd8	-0.004632931
24	0xbc93f2d3	-0.018060124
25	0xbc69a86d	-0.014261347
26	0xbbbbf916	-0.0057364805
27	0xba4468ae	-0.0007492405
28	0xbce8c28d	-0.028413082
29	0xbcab4ad3	-0.020909702
30	0xbca630f0	-0.020287007
31	0x3c4eddb9	0.012626105
32	0x3cb3849f	0.021913825
33	0xbd2478b3	-0.04015417
34	0x3ca948a7	0.020664526
35	0x3c4c44a2	0.012467535
36	0x3c32ecbf	0.0109207025
37	0xbbb66e88	-0.0055673756
38	0x3c4bac85	0.012431269
39	0xbc106d02	-0.008815052
40	0xbc7cdae2	-0.015433045
41	0xbc09cc1c	-0.00841048
42	0x3c252019	0.010078453
43	0xbc5351e7	-0.012897945
44	0xbb1fd1fd	-0.0024386637
45	0xbcd8f63d	-0.026484603
46	0xbb1bb01e	-0.0023756097
47	0xbc367191	-0.011135475
48	0xbcc1eb06	-0.023671638
49	0xbc5ac572	-0.013352739
50	0xbc94efab	-0.018180689
51	0xbd369f6a	-0.044585623
52	0x3cbc16c9	0.022960084
53	0xbc810658	-0.015750095
54	0x3cca4909	0.024693029
55	0xbc89ecb7	-0.016836507
56	0xbc05719f	-0.008144765
57	0xbc82fa82	-0.015988592
58	0xbb86ca00	-0.0041134357
59	0xbc039cab	-0.008032958
60	0xbc0ddd0d	-0.00865866
61	0x3cc99cd4	0.024610914
62	0x3d4ae663	0.04953612
63	0xbc76d7dc	-0.015066113
64	0x3c0f924f	0.00876291
65	0x3a381865	0.0007022678
66	0x3b8d2c40	0.0043082535
67	0xbaf6b8b6	-0.0018823359
68	0x3ce8d07d	0.028419727
69	0xbd241a59	-0.04006419
70	0xbcb5d65a	-0.022196937
71	0x3c5e842b	0.013581316
72	0x3c875260	0.016518772
73	0x3c1a7a86	0.009428626
74	0x3d0e01f3	0.034669828
75	0x3ae93bc1	0.0017794297
76	0xbc56cfbf	-0.013111054
77	0xbc26bd7a	-0.010177011
78	0xbd0893c8	-0.03334406
79	0xbcd5ef16	-0.026114982
80	0xbba626b3	-0.0050705313
81	0x3b9d22c3	0.0047954037
82	0xbc99147f	-0.018686531
83	0xbca8559d	-0.020548636
84	0xbcb7550c	-0.02237942
85	0x3bd475d8	0.0064837746
86	0xbc625d80	-0.013816237
87	0x3bf16c84	0.0073676724
88	0xbc8b7b18	-0.01702647
89	0x3c46475e	0.012101976
90	0x3bdb38e5	0.006690132
91	0xbcdd6455	-0.027025381
92	0xbcdd22d7	-0.026994152
93	0xbc8d2021	-0.017227234
94	0x3ca56037	0.02018748
95	0x3c19e365	0.009392594
96	0x3c070155	0.008240064
97	0x3d53ff07	0.051756885
98	0xbcb7e775	-0.022449235
99	0x3d310634	0.043218806
100	0x3c061eda	0.0081860665
101	0x3c177d71	0.009246216
102	0xbbd62c1d	-0.0065360204
103	0x3b8c8f3c	0.004289536
104	0x3bc3b94a	0.005973016
105	0x3c791b28	0.015204228
106	0xbabbd08b	-0.0014329118
107	0xbc4e0a69	-0.012575724
108	0x3b3bf23e	0.0028678323
109	0xbca77457	-0.020441217
110	0x3cddaf97	0.027061267
111	0xbbe74f34	-0.0070590023
112	0x3bcdd5fa	0.0062816115
113	0x3c8183b2	0.015809868
114	0xbc97e548	-0.018541947
115	0x3c75a228	0.014992274
116	0x3c4dd652	0.012563305
117	0xbbe4d297	-0.006983112
118	0xbcaa0069	-0.020752149
119	0x3b323e02	0.0027197604
120	0x3cf64898	0.030063912
121	0xbc3ff4b4	-0.011716057
122	0xbc1f0448	-0.009705611
123	0x3d072ae1	0.032999877
124	0xba808fd3	-0.0009808488
125	0x3cd1030e	0.025514152
126	0xbc216562	-0.009850832
127	0x3cf975e2	0.030451719
128	0xbc50e773	-0.012750494
129	0x3c7e3ae2	0.015516968
130	0xbc49b24d	-0.012310577
131	0x3c60f15c	0.01372942
132	0x3bbe3839	0.005805042
133	0xbc8d3d41	-0.017241122
134	0x3c486fab	0.012233655
135	0xbb1860a8	-0.002325097
136	0x3a800a72	0.0009768738
137	0xbc4c9531	-0.012486742
138	0xbcc6b103	-0.024254328
139	0xbbb1d23d	-0.0054266737
140	0x3c3cedcd	0.0115313055
141	0x3c6214b9	0.013798886
142	0xbd07094a	-0.032967843
143	0x3b5f85e1	0.0034106898
144	0xbc7fd231	-0.015614078
145	0x3cc21863	0.02369327
146	0x3b50e834	0.0031876685
147	0xbc3cf74e	-0.011533571
148	0x3ccf3881	0.025295498
149	0xba9ee4ae	-0.0012122595
150	0x3d42051f	0.047368165
151	0xbcc38cc7	-0.023870839
152	0x3bb399be	0.005480974
153	0x3d1a56e6	0.03768053
154	0x3be50a60	0.006989762
155	0x3d24b9a7	0.040216114
156	0xbc1edd3c	-0.009696301
157	0xbbb0f852	-0.005400696
158	0x3c9441cc	0.01809778
159	0xbd0d21c0	-0.034456015
160	0x3c5cf388	0.013485797
161	0x3bd084b9	0.006363478
162	0xbc822156	-0.015885036
163	0xbb398e23	-0.002831348
164	0xbd00d6b3	-0.031454753
165	0xbc6eee61	-0.014583201
166	0xbd100ff3	-0.03517146
167	0xbcaeebc8	-0.021352664
168	0x3d4fea4a	0.050760545
169	0x3c03a20d	0.008034241
170	0x3c8296dc	0.015941076
171	0x3cd2426f	0.025666444
172	0x3c0fda5d	0.008780089
173	0xbc2fd0d7	-0.010730944
174	0xbcf2f77e	-0.02965903
175	0xbc610c8c	-0.013735902
176	0xbcd3e4b5	-0.025865892
177	0x3d08873f	0.033332106
178	0xbbbaf9ff	-0.0057060714
179	0xbcb3a1a5	-0.021927664
180	0x3d0acff2	0.03388972
181	0x3d6406eb	0.05567066
182	0xbc72a7a0	-0.014810473
183	0x3a838f23	0.0010037165
184	0xbce142e4	-0.027497716
185	0x3c8463ac	0.016160809
186	0xbc2d9a6f	-0.010595902
187	0xbc6ceb3f	-0.014460384
188	0xbcb99a1e	-0.022656497
189	0xbaf28343	-0.0018502254
190	0xbbe97171	-0.007124119
191	0xbd07eb48	-0.033183366
192	0x3bcd30b7	0.006261911
193	0xbb7f4070	-0.003894832
194	0x3c985a55	0.018597761
195	0xbc33f48c	-0.0109835975
196	0x3d1f0fd6	0.03883346
197	0x3c691662	0.014226528
198	0xbc7b720d	-0.015347016
199	0xbc3dc56a	-0.011582712
200	0xbbf8351a	-0.0075746896
201	0x3b858f4d	0.0040759207
202	0x3c47ecf5	0.012202491
203	0xbbd3785b	-0.0064535565
204	0xbced1b7b	-0.028943768
205	0xbc5484c2	-0.012971105
206	0xbc7f9752	-0.015600042
207	0x3c012317	0.007881901
208	0xbc50ae01	-0.012736798
209	0xbc8ce775	-0.017200211
210	0x3c29165b	0.010320271
211	0xbc1123dc	-0.008858647
212	0x3d83ec3f	0.06441545
213	0x3bf112e1	0.007356987
214	0x3c1129d5	0.008860071
215	0x3c67171f	0.014104634
216	0xbcde4444	-0.027132161
217	0xbd5ce4eb	-0.05392925
218	0xbca8ba7b	-0.020596733
219	0x3c91c113	0.01779226
220	0x3c7699ac	0.015051287
221	0xbcbbfe4e	-0.02294841
222	0xbd0cc662	-0.03436888
223	0xbba3effc	-0.0050029736
224	0xbc8e043d	-0.017336005
225	0x3c806662	0.01567382
226	0xbb6ca4fd	-0.0036109083
227	0x3c9b543a	0.01896106
228	0xbcb160ae	-0.021652546
229	0xbbff6a59	-0.00779466
230	0xbc2acaca	-0.010424325
231	0xbcd1b6f5	-0.025599936
232	0xbadfdf3b	-0.0017080078
233	0x3b85bfce	0.004081703
234	0x3c97738e	0.018487718
235	0xbc3ce046	-0.01152808
236	0xba483707	-0.0007637594
237	0x3c134a59	0.008989894
238	0x3c884edd	0.016639167
239	0xbb278229	-0.002555976
240	0x3cdfd48f	0.027323036
241	0xbbb06830	-0.005383514
242	0xbd6610a6	-0.05616822
243	0x3ab4dceb	0.0013798749
244	0xbc4bdd46	-0.012442892
245	0xbca7f9d0	-0.020504862
246	0xbc9b1d73	-0.01893494
247	0x3cc85b28	0.02445753
248	0x3ca85f44	0.020553239
249	0x3d0a0f95	0.033706266
250	0x3c803d33	0.015654182
251	0xbc96a0c3	-0.018387204
252	0x3d2548d3	0.040352654
253	0xbc0944b7	-0.008378199
254	0xbbe3126e	-0.006929687
255	0x3cdf002c	0.027221762
