model_weights/w_531.npy (npy, 860288 bytes, 1 tensors)

array f4 [7, 1, 160, 192]
-0.015701741 0.011041391 0.021497335 0.004694266 -0.021796873 -0.011967982 0.0016460381 -0.020500898
0.03838712 -0.0065008104 -0.0022889595 0.0016560472 -0.0030870105 0.016581872 -0.017204098 0.036049914
-0.010971054 0.0122991735 -0.014770573 0.0051133176 0.009871539 0.0041972618 -0.009022484 -0.011883832
0.0089883655 -0.011886989 -0.02098354 0.010349165 0.029040975 -0.0057752673 0.004726141 -0.008298046
-0.030554269 -0.0138071 0.0011175227 -0.0065937843 0.01137012 0.0059116483 -0.018520482 -0.030388009
-0.0068629393 -0.0054549607 0.00013245028 0.015620355 -0.035443176 -0.028712394 -0.028445106 -0.016396552
-0.0020218927 0.004900783 0.013223878 -0.013483103 0.0034050364 -0.012542842 0.08065862 -0.003407924
-0.018878508 -0.00941533 -0.006814932 0.018940803 -0.047025565 0.016577428 -0.0203633 -0.013921737
5.6022e-05 -0.014940589 -0.0126245655 0.0026876025 0.0016399751 -0.02007712 -0.007434843 0.037495945
-0.03669911 -0.010478656 0.015917735 0.007774368 0.006083429 0.0022956484 -0.0016958033 0.007167438
-0.013056605 -0.0021912162 -0.043112367 -0.0053715897 0.01390373 0.0126847215 -0.003999562 -0.0034476677
0.028344486 0.0068721557 -0.043602098 0.013542168 0.016248142 -0.0065860753 -0.023202075 -0.025424993
-0.026199935 -0.013776429 0.054464556 -0.029194232 -0.011373224 -0.0073915487 -0.03119282 0.026626406
-0.030979812 -0.0012151328 -0.010445688 -0.0043518017 -0.015888967 -0.008284378 0.01790081 0.043542523
-0.020376854 -0.0050491304 -0.0194014 -0.022255506 -0.029464003 0.0012945185 -0.0077558076 -0.043666475
-0.004249762 -0.003084592 0.023382101 -0.012069677 0.013007297 -0.0051123668 0.0019229545 0.020351877
0.038398694 -0.0061724 -0.014008316 0.008864766 -0.0019204743 0.041114446 0.0011476575 -0.0075087715
0.008684507 -0.0045135436 0.025249599 -0.020777835 -0.03807977 0.016220594 0.017183883 -0.02408375
-0.029284852 0.026861401 -0.0043604416 0.013398471 0.0038120192 -0.019827848 -0.01454079 0.0012784301
-0.03303848 0.009469778 -0.013881355 0.0040756073 -0.0011304761 -0.017610641 0.041098617 0.007097203
-0.01513307 0.013645396 -0.014140475 0.006288218 -0.0141672585 -0.011612676 0.010404631 0.0026131715
-0.0077104624 0.0018963482 -0.00032824872 0.0051545626 -0.009482768 0.002909422 -0.0016189585 -0.009026427
-0.0136987595 -0.021308528 -0.003309147 -0.025613874 -0.011257181 0.007559125 6.0280116e-05 -0.020602807
-0.012127014 -0.009846709 -0.026778739 0.002652729 -0.00052713323 -0.008805441 -0.02118661 0.008236764
0.016740978 -0.020001227 -0.008816363 -0.022811914 -0.018956305 -0.03590127 0.00689604 0.011018735
-0.021263016 -0.020255817 -0.00303082 -0.025585385 0.031364523 0.0037511594 0.010741945 0.03640244
-0.043548033 0.027893353 0.023480523 -0.016892482 0.0047963047 -0.0042616134 -0.00867328 -0.009734523
-0.021091217 -0.034306254 0.06501809 0.03148973 0.04145933 -0.0155982645 -0.0008407013 0.00063518033
0.016932158 -0.0140270945 -0.037787374 -0.0141634075 -0.039793357 -0.022334028 0.016557163 -0.013996891
-0.033210833 -0.018526524 0.012671371 -0.0095364405 -0.010083177 0.004054157 -0.005399418 -0.0010106752
0.011625772 -0.008002379 0.028869733 0.006772623 -0.028699197 0.007996575 0.02015218 0.04100017
-0.012121563 0.0044394964 0.003038159 0.0024025058 -0.015278113 -0.033602525 0.023710707 -0.044843175
00000000: f0a0 80bc f3e6 343c 2e1b b03c 5bd2 993b
00000010: 5b8f b2bc 5b15 44bc e0bf d73a 80f1 a7bc
00000020: d03b 1d3d c004 d5bb 5e02 16bb b90f d93a
00000030: 714f 4abb b5d6 873c 9cef 8cbc 13a9 133d
00000040: f0bf 33bc 7982 493c 4600 72bc 9e8d a73b
00000050: 3cbc 213c 2f89 893b 0ad3 13bc 67b4 42bc
00000060: f043 133c a5c1 42bc ace5 abbc 8b8f 293c
00000070: 57e7 ed3c 743e bdbb bfdd 9a3b 87f4 07bc
00000080: f24c fabc 2d37 62bc d779 923a ac10 d8bb
00000090: bd49 3a3c 80b6 c13b 44b8 97bc 46f0 f8bc
000000a0: 82e2 e0bb 87bf b2bb 5ae2 0a39 84ec 7f3c
000000b0: dd2c 11bd 4136 ebbc b605 e9bc 1052 86bc
000000c0: bb81 04bb bf96 a03b f7a8 583c 3ce8 5cbc
000000d0: 0827 5f3b 7e80 4dbc 5930 a53d 7a57 5fbb
000000e0: 1aa7 9abc c242 1abc cb4f dfbb be29 9b3c
000000f0: e19d 40bd 63cd 873c efd0 a6bc ff17 64bc
00000100: 2af9 6a38 5fc9 74bc 44d7 4ebc 7d22 303b
00000110: 6ff4 d63a c678 a4bc fc9f f3bb 5995 193d
00000120: ce51 16bd abae 2bbc e965 823c 20c0 fe3b
00000130: 8057 c73b 9772 163b b745 deba d4dc ea3b
00000140: 5feb 55bc 829a 0fbb 9896 30bd 2904 b0bb
00000150: 78cc 633c 94d3 4f3c c20e 83bb 44f2 61bb
00000160: b232 e83c d22f e13b 1d98 32bd f8df 5d3c
00000170: d31a 853c 01d0 d7bb 4712 bebc 1348 d0bc
00000180: 3fa1 d6bc 88b6 61bc 3a16 5f3d be28 efbc
00000190: c256 3abc ce34 f2bb 1688 ffbc 9f1f da3c
000001a0: 60c9 fdbc 1745 9fba 6424 2bbc 8f99 8ebb
000001b0: 9429 82bc 33bb 07bc b8a4 923c a559 323d
000001c0: 5ced a6bc 2d73 a5bb afef 9ebc 2e51 b6bc
000001d0: 7e5e f1bc d5ac a93a 6e24 febb 9edb 32bd
000001e0: 9641 8bbb de26 4abb d28b bf3c e5bf 45bc
000001f0: 8f1c 553c a485 a7bb a50b fc3a fbb8 a63c
00000200: f347 1d3d d841 cabb 2383 65bc 863d 113c
00000210: 6db8 fbba 9f67 283d ff6c 963a 240c f6bb
00000220: 7649 0e3c 59e6 93bb 3fd8 ce3c 4736 aabc
00000230: 88f9 1bbd 0de1 843c 37c5 8c3c 494b c5bc
00000240: c9e6 efbc 710c dc3c 09e2 8ebb 4385 5b3c
00000250: 12d3 793b 036e a2bc 7e3c 6ebc ff90 a73a
00000260: 5b53 07bd 2127 1b3c 9f6e 63bc ac8c 853b
00000270: 7c2c 94ba 3144 90bc 0657 283d a78f e83b
00000280: b2f0 77bc f090 5f3c 73ad 67bc 650d ce3b
00000290: ca1d 68bc 1843 3ebc 2f78 2a3c be41 2b3b
000002a0: 0ca8 fcbb e38e f83a cc18 acb9 9be7 a83b
000002b0: 9d5d 1bbc 00ac 3e3b 3c33 d4ba 94e3 13bc
000002c0: c370 60bc 398f aebc 46de 58bb 30d4 d1bc
000002d0: 0a70 38bc 89b2 f73b 48d5 7c38 38c7 a8bc
000002e0: 62b0 46bc 1754 21bc 165f dbbc 68d9 2d3b
000002f0: 502f 0aba b244 10bc 8b8f adbc 7ef3 063c
00000300: 6024 893c 9dd9 a3bc 8272 10bc 0de0 babc
00000310: 414a 9bbc 360d 13bd 2df8 e13b ed87 343c
00000320: c72f aebc 87ef a5bc b9a0 46bb 7198 d1bc
00000330: 1678 003d 03d6 753b fcfe 2f3c ba1a 153d
00000340: 6c5f 32bd 9a80 e43c 3a5a c03c 1a62 8abc
00000350: 522a 9d3b 01a5 8bbb 5f1a 0ebc 8c7d 1fbc
00000360: 7dc7 acbc b784 0cbd 3428 853d 60fb 003d
00000370: 42d1 293d dd8f 7fbc 8262 5cba 3b82 263a
00000380: 4fb5 8a3c e6d1 65bc efc6 1abd a30d 68bc
00000390: 5cfe 22bd daf5 b6bc e3a2 873c 3753 65bc
000003a0: 1508 08bd f0c4 97bc 959b 4f3c bb3e 1cbc
000003b0: e933 25bc bcd8 843b 9aed b0bb a278 84ba
000003c0: 067a 3e3c 691c 03bc 3880 ec3c e1ec dd3b
000003d0: 941a ebbc 1104 033c 2f16 a53c cbef 273d
000003e0: 8599 46bc 3279 913b da1b 473b 5c73 1d3b
000003f0: 0d51 7abc cda2 09bd f53c c23c 7aad 37bd
