model_weights/w_539.npy (npy, 4480 bytes, 1 tensors)

array f4 [1088]
00000000: f20e 7abe e847 bcbd 735e 39be 6aec cabd
00000010: ea3f c7bd f698 3dbe b41f a83d d832 153d
00000020: ae24 73be 28a8 d5be c680 afbd ec08 54bd
00000030: 7418 b0bc 401a e5be d6e6 01be 89b3 29bd
00000040: 126a 5ebd 32d1 55bd 4237 2c3d 5c1c a4bd
00000050: dec4 5cbe 3415 de3d b44b 1abe b35b 5d3e
00000060: ec22 f83c 8726 8aba 812f 253d 1f99 29bd
00000070: 3591 06be 8dfc bb3d c648 7d3d 7d5a 2b3d
00000080: d521 ccbc c388 7ebd d108 e4bc ed65 303e
00000090: 87cb 01be f778 18be 3a6f 9dbe 1bd8 ecbd
000000a0: e188 8cbe 3b77 703e 7e91 0ebe f248 c0bd
000000b0: 83a7 c7bc 35c6 89be af78 04be 10d0 393e
000000c0: 88c6 01be d535 65bd fc15 f5bd d8f0 8bbd
000000d0: 1614 093c aadb cdbc 7b9e 303c 743f 01be
000000e0: 8aac 713d ee7a f6bd 76e3 433e 304d 41be
000000f0: f22f 53be 326b febd 634a 72be a507 1f3c
00000100: 81fb dbbe 1b56 4fbe a7a3 a43d 1415 01be
00000110: e70c 47be d268 0a3d 058e 96be fe0d c3bd
00000120: 3d21 ddbd 4e92 45bd 4637 27be 6a41 28be
00000130: a74e 9cbd 04f8 053c 79ca 55be dc04 64bd
00000140: d215 3abe e3a2 4abd b1cd c83d 2a77 aebd
00000150: abd3 a1be 13b9 823c ef46 cebe 7d67 89be
00000160: 0c96 d43d fd41 d13d aa4a 51be 37dc 52be
00000170: 3a7f bfbd 321d b73d fd7b 29be a52d 3dbe
00000180: 8185 a8bd d705 10bd 5b1f c83e fb05 93bc
00000190: dd14 efbe 5a37 9c3e a76b 2bbe 13c6 18be
000001a0: 2ab9 6dbd 9962 44be faca 2abe e69c 5d3e
000001b0: 8f91 1cbe 3175 9bbe 89fb 92be 271b 3ebd
000001c0: 80c5 42be 3c57 8fbc dea9 3cbe aafb b2bc
000001d0: 9765 b2be 7a67 0a3b 1d9d 6abe 4e62 893e
000001e0: d579 c13d dbc5 9e3c 2423 febc 33b2 e2be
000001f0: 146c abbd 3a45 47be 3edb 54be 4010 03be
00000200: 4d8e f5bd dbe8 e93c b740 69be 3cce f43e
00000210: d0eb 98be 1bc8 f83d 9fc9 8ebe 1340 45be
00000220: 6ef5 fd3c 9e5c 04be 998f 2dbd 2f98 0bbe
00000230: 699c d6bd 466f 4dbe 19a1 e13d cd11 8cbb
00000240: 6098 fcbd 8524 863e b9cb ea3c 581d 10bd
00000250: 728d 613d 9615 1a3d 3fb5 e13d 0dba 693e
00000260: e41f 41bc e276 12be 938b 00bd 4f00 43be
00000270: 9679 05be 1b09 24be ad06 b9be 3a4a 87bd
00000280: 92a9 02bd fa0d c7bc 40e7 903d ded9 5b3b
00000290: 6349 1bbe d765 0bbe 810a 6fbe 5330 a83d
000002a0: 1927 09be 0fab 483e 342c a5bd 2d11 00be
000002b0: d84f 10be ec2d 38bc a0ea f0bd 070f bfbd
000002c0: 0feb fcbd 9d78 8ebe 5114 833e 08af 983e
000002d0: bb68 8b3e 3a29 2dbe 92e4 98be 202d 033d
000002e0: b6c3 e03c e464 443e dc98 11bd 11fd 843d
000002f0: 72b1 8cbd 8ea9 68bc c7c1 eabe ba92 283e
00000300: ab33 c13c f7d9 acbd 8e07 dfbd 596f b8be
00000310: 72d0 acbd 6ed6 3fbd e7cb 81bd ac45 83bd
00000320: 35ef 42bc 62bb 29be 7c6b d3bc 1c21 d1bd
00000330: 06da e0bd 1613 6b3d 2ed7 2e3e 4ff4 babd
00000340: a660 a4be 26fe 16be 34f9 dc3d 7e48 17be
00000350: bdef ecbe 689b 883b f855 163e 21ae 4fbd
00000360: d7c3 253e 01a0 00be a939 4b3d 938e 11bf
00000370: b365 43bf 5e4f 3abe 9e04 c1bd 7688 923d
00000380: c137 4dbe edc2 7ebe 3450 babd 3144 983d
00000390: 8a08 073b 8595 adbd bfc5 17be 5375 2fbe
000003a0: a0aa 45be dd56 4b3d a7db abbd 9d84 6ebe
000003b0: 258b 0ebf 16b4 dd3e ed8f 923e ca08 17be
000003c0: 7f86 223c 3ff2 59be 3cb2 053c b04b 8cbd
000003d0: 3d0e 15be 9c9e a83b d600 5abd f52a 97bd
000003e0: b90c 84be dca9 8bbe 4d98 ddbd 3a5f ff3e
000003f0: d388 cebe 431e f43b 10d8 f3bc 67cb f53d
-0.24419764 -0.091934025 -0.18102436 -0.09908374 -0.097289875 -0.18515381 0.08209172 0.03642544
-0.23744461 -0.41729856 -0.085694835 -0.05176632 -0.021496035 -0.4474659 -0.12685713 -0.041430984
-0.054300375 -0.052201457 0.042044885 -0.080132216 -0.21559474 0.10843888 -0.15067941 0.21617012
0.03029009 -0.0010540046 0.040328506 -0.041405793 -0.1314133 0.091790296 0.06183698 0.041834343
-0.024918476 -0.062142145 -0.027836235 0.17226382 -0.12675296 -0.14889894 -0.30748922 -0.11564656
-0.2744818 0.23482983 -0.13922688 -0.09388913 -0.024371868 -0.26909032 -0.12936662 0.18145776
-0.1267339 -0.05595954 -0.11967084 -0.06833047 0.008366605 -0.025129158 0.010779972 -0.12621862
0.059002437 -0.12035166 0.19129738 -0.18877101 -0.20623758 -0.1242279 -0.23661189 0.009706412
-0.4296532 -0.2024769 0.08039027 -0.12605697 -0.19438516 0.03379137 -0.29405227 -0.09524153
-0.10797355 -0.04823523 -0.16329679 -0.16431203 -0.07632189 0.008176807 -0.20878018 -0.055668697
-0.18172386 -0.049471747 0.098048575 -0.085188225 -0.31606802 0.01595739 -0.40288493 -0.26836768
0.10380182 0.102176644 -0.20438638 -0.20591818 -0.093504384 0.089411154 -0.16551204 -0.18474443
-0.08228589 -0.03516182 0.39086422 -0.017947188 -0.46695605 0.3051098 -0.16740285 -0.1491931
-0.058037914 -0.19178237 -0.16678992 0.21641883 -0.15289901 -0.30362847 -0.2870753 -0.046412613
-0.19020653 -0.017497651 -0.18424174 -0.021848518 -0.34843132 0.0021118806 -0.22911496 0.26832813
0.09447066 0.019381454 -0.031022616 -0.4427658 -0.08370224 -0.19460002 -0.2078676 -0.12799168
-0.11990032 0.028553417 -0.22778593 0.47813594 -0.2986741 0.12147542 -0.278882 -0.19262724
0.031000819 -0.12925956 -0.042373274 -0.13632272 -0.104790516 -0.20061979 0.11017055 -0.004274583
-0.12333751 0.26199737 0.028661596 -0.035184234 0.055066533 0.037618242 0.11020898 0.22824879
-0.0117873885 -0.14303163 -0.03138311 -0.19043086 -0.13034663 -0.16019098 -0.36137906 -0.066059545
-0.031899996 -0.024298657 0.070753574 0.0033546607 -0.15164714 -0.13613068 -0.2334385 0.08212342
-0.13393821 0.19596504 -0.08065072 -0.12506552 -0.14092958 -0.011241417 -0.11763501 -0.09329038
-0.12349521 -0.27826396 0.25601438 0.29821038 0.2722834 -0.16910258 -0.29861885 0.032025456
0.027437072 0.19179112 -0.03554617 0.06493581 -0.068697825 -0.014200581 -0.45850965 0.16462222
0.023584208 -0.08440011 -0.10890113 -0.36022452 -0.08438195 -0.046835355 -0.063377194 -0.06409773
-0.011897852 -0.16575387 -0.025808088 -0.10211393 -0.10979085 0.05739125 0.17074272 -0.091286294
-0.32104987 -0.14745387 0.10789719 -0.14773747 -0.46276656 0.0041689165 0.14681232 -0.05070317
0.16187988 -0.12561037 0.049615536 -0.56858176 -0.76327056 -0.18194339 -0.09424709 0.07154934
-0.200408 -0.24879046 -0.09097329 0.074348815 0.0020604455 -0.08475784 -0.14821528 -0.171346
-0.1930337 0.049643386 -0.08391505 -0.23292775 -0.5568107 0.43301457 0.28625432 -0.14749447
0.009919762 -0.21283816 0.00816017 -0.06850374 -0.14556213 0.005145861 -0.053223453 -0.0738124
-0.25790957 -0.2727803 -0.10820065 0.4987734 -0.40338764 0.0074498965 -0.029766113 0.120016865
