model_weights/w_562.npy (npy, 573568 bytes, 1 tensors)

array f4 [1, 7, 128, 160]
00000000: 83ec 9c3c e0e0 7a3b 244e c13c db88 d2bc
00000010: 4441 133d bece 3a3a 4f4c cebb 989b 2dbb
00000020: ba4a 44bd c646 453c 0641 c3bc fdee 9a3a
00000030: c7a2 c23c bb64 2e3d 81ff a3ba 3c4d 8e3c
00000040: 44b9 06bc 104c efbc fe13 e03b d787 f93c
00000050: a4b2 4cbc 89cc c6bc ed3e 863b 1d33 1a3c
00000060: d6c9 213d 815c 113d 9cb4 353c 6840 38bc
00000070: b14b 34bc 8db0 4abc 8f20 ec3b 02ee c3bb
00000080: cb20 dc3b 3368 87bd 1e24 65bb 16b0 4f3c
00000090: 9d58 fd3c 4e94 9e3c e376 cfbc 55b2 e7bb
000000a0: 3eb1 e53b 631c c1bc 1bbb f7bc 209a fbbb
000000b0: 97e9 483c 2a3c 12bc 9536 433d b2d6 9ebc
000000c0: 319a 9dbc a613 c7bc 8a33 a93c 7a74 a03c
000000d0: a016 223b 85a4 e33c b722 49bb 833c c0bc
000000e0: cfd8 253c 7d88 bd3c cbdb 0e3c 77c8 0cbd
000000f0: 3e67 603d 897d 93bc 9533 0ebc 1cd4 bbbb
00000100: 13cb 413b a6a3 2a3c da49 d83c eeba 753b
00000110: fdca 95bc c822 4b3c 71ac 10bb 0efa 13bc
00000120: dfe9 d1ba 160f 2abc 1c2d 2e3d 7e84 23bc
00000130: a096 97bb 89dd b2bc e8c3 58bb 3908 2c3b
00000140: 8087 163d d88a 10bc 063a 4cbc 10c3 9ebc
00000150: 4b28 8cbc a35b e53c dbd1 9eba 66ba 2cbc
00000160: c9a7 8abc 100f e5bb 8505 a7ba 8228 81bb
00000170: 49a5 62bb 186d ea3c 9170 0fbd 9aa7 b7bc
00000180: c585 633b b2ad eabc 2160 bbbb 3053 44bb
00000190: a94c 99bb 6c92 c43b 775d 3fbc 609a 88bb
000001a0: f853 eebb e76e 83bc 1a60 77bb 0db9 543c
000001b0: 59a4 06bc 4730 0f3c 0e7f 383c 4692 4cbc
000001c0: 25b9 133c d95d 2c3c 8c1b 72bc 970e a8bb
000001d0: 12c9 0dbd 2caa c33c b5ae 11bc dd7f a4bc
000001e0: 4079 21bb dd03 a43c 736e e4bb 9e86 0e3d
000001f0: fc4d 903c 6a7d 1cbd b71f eb3c ebaf 17bc
00000200: f8bf f6bc d2a4 a23c 60b3 5a3c f8d7 eb3a
00000210: 7502 7ebc e6b8 a7bc f753 0e3c 50d7 9abc
00000220: cfc9 10bc da5e f6bc ff26 183c 0383 f13c
00000230: 96aa 88bb 0532 cc3c a484 83bc dacd b0bb
00000240: f407 983b 4626 d2bc efbb 7bbc 6142 fc3c
00000250: a9d9 13bc a882 1ebc 57f1 b1bc 42a5 00bc
00000260: da0a 73bc 5d2b 0ebc e51f 0bbc 9b42 0abd
00000270: 6da1 60bc c478 1cbd 7b8a 89bc 1551 05bc
00000280: 83b3 2bbc 394b 00bc 051b 013d a431 e83b
00000290: 7174 75bc 47a5 92bc 7c73 d0bb 3e41 063c
000002a0: 9acf aebc 11c3 92bb 71b9 363d 15ea f3bb
000002b0: b6ed 38bc 1f07 9cbc f47e 6fba 4218 b8bc
000002c0: 5d2a 5abc 8fb4 dc3b 4609 4a3c 158d 5cbc
000002d0: 620a 433c 5836 90bc 1264 f8bc 9520 d639
000002e0: b202 2cba 1a03 293c e699 8a3b e0e7 173c
000002f0: 5097 d0bb 7ebf dd3b 6c8a 713c 1b7e 47ba
00000300: 44ea d4ba 5619 c9bc 49ae 1e3c 7ee1 953c
00000310: 763b f7bc 18db ad3c 4ca8 64bb f851 0d3c
00000320: b439 17bc a503 983c ab01 fcbc 1519 013c
00000330: 7302 1abc 9a04 5dbc ef95 013c ace6 e239
00000340: 44d9 39bc 0114 2a3d 863e 883b b8f8 d2bc
00000350: 94eb ce3c efbe 80bd 0b3b 42bd 33a5 c53c
00000360: ea91 cb3c 6155 bc3c ecf3 f7bb 4bc9 a03b
00000370: ec56 df3d d7fd f33b 17e9 dabc 1e44 9b3c
00000380: 0e70 cbbc a1d8 62bb 77db 64bb 9bb0 573c
00000390: 2322 4cbc 06ec b5bb 6b24 223a 69e5 da3c
000003a0: 6ce0 8c3c a379 d93c afc5 8bbd 9c10 313c
000003b0: 5eff 0cbc 6bd6 02bc fcce 11bc 77c9 85ba
000003c0: 1dc6 b1bc 7c59 abba 62a7 c73b 487b 0c3c
000003d0: f2d7 54bc 02d3 0fbb ef51 773c 10e0 373c
000003e0: d767 11bc 82e5 b3ba a954 5ebc e851 0e3c
000003f0: b661 05bd dccd 0e3b 4ba3 433b 969d 8d3c
0.019155746 0.0038281009 0.02359683 -0.025700023 0.035950914 0.0007126144 -0.006295718 -0.0026490446
-0.047922827 0.0120407995 -0.023834717 0.0011820492 0.023759259 0.042576533 -0.0012512059 0.017370813
-0.008222882 -0.029211074 0.0068383208 0.030460281 -0.012493763 -0.024267452 0.004096857 0.0094116
0.039499126 0.03548861 0.011090424 -0.011245824 -0.011004374 -0.012371195 0.0072060297 -0.0059793005
0.0067177764 -0.06611671 -0.0034964154 0.0126762595 0.030926043 0.019357827 -0.025325244 -0.0070708194
0.0070096543 -0.023573106 -0.030240586 -0.0076782852 0.012262723 -0.008925477 0.047659475 -0.019389484
-0.019238563 -0.024301361 0.020654459 0.01958679 0.0024732724 0.02778841 -0.0030690858 -0.023466354
0.010122492 0.023136372 0.008719395 -0.034370866 0.05478596 -0.018004196 -0.00867929 -0.0057320725
0.0029570505 0.010414993 0.026402403 0.0037495452 -0.018285269 0.012398429 -0.002207544 -0.009031786
-0.0016015134 -0.010379573 0.04252349 -0.009980319 -0.00462611 -0.021834152 -0.0033075754 0.0026250018
0.036750317 -0.008822165 -0.012465006 -0.019380122 -0.017109057 0.027997797 -0.0012116985 -0.010542488
-0.01692571 -0.006990321 -0.0012742734 -0.0039415965 -0.003458338 0.028616473 -0.03501946 -0.022418786
0.0034717184 -0.028647278 -0.0057182466 -0.002995681 -0.004678328 0.0059989 -0.011679999 -0.0041687936
-0.0072731934 -0.016044093 -0.003774649 0.012983573 -0.0082178945 0.008739538 0.011260761 -0.012486046
0.00901631 0.010520422 -0.0147770755 -0.0051286924 -0.034615584 0.023884855 -0.008891751 -0.020080501
-0.002463892 0.020021373 -0.0069711744 0.03479635 0.01761531 -0.03820554 0.028701646 -0.009258251
-0.030120835 0.019853983 0.01334843 0.0017993441 -0.0155035155 -0.020473909 0.008687011 -0.018901497
-0.008837177 -0.030074526 0.009286641 0.029481417 -0.004170726 0.024926195 -0.016054459 -0.005395633
0.00463962 -0.025653016 -0.015364631 0.03079337 -0.009024062 -0.009674706 -0.021721525 -0.0078519005
-0.01483413 -0.008677331 -0.008491491 -0.033754926 -0.013710362 -0.03820111 -0.016789665 -0.008137007
-0.010479811 -0.0078304345 0.03151991 0.0070859957 -0.014981375 -0.017901076 -0.006361423 0.008194266
-0.021339227 -0.00447882 0.044610444 -0.0074436762 -0.011287143 -0.019046364 -0.0009136044 -0.022472505
-0.013315764 0.0067353914 0.0123313125 -0.013461371 0.011904331 -0.017604038 -0.030321155 0.00040841536
-0.0006561681 0.010315681 0.004229772 0.009271592 -0.006365694 0.0067672124 0.014742475 -0.0007610039
-0.0016244133 -0.024548214 0.0096851075 0.018296 -0.03017972 0.021222636 -0.0034890352 0.0086255
-0.009230066 0.018556425 -0.030762514 0.007879515 -0.009399998 -0.013489867 0.007909282 0.00043277943
-0.011343304 0.041522983 0.004157844 -0.025753364 0.025258817 -0.06286418 -0.04741959 0.024126625
0.02484985 0.02298993 -0.0075669196 0.0049068085 0.10905251 0.0074460316 -0.026722474 0.01895338
-0.024833705 -0.0034613984 -0.003492085 0.013164665 -0.012459311 -0.005551818 0.0006185236 0.02672072
0.017196856 0.026547259 -0.068248145 0.010807183 -0.008605806 -0.007985692 -0.008899447 -0.0010207136
-0.021700913 -0.0013072933 0.0060929516 0.008574314 -0.0129909385 -0.0021945839 0.015095218 0.011222854
-0.008874855 -0.0013725015 -0.013569989 0.00868652 -0.032563888 0.0021790182 0.002985197 0.017287057
