model_weights/w_575.npy (npy, 4480 bytes, 1 tensors)

array f4 [1088]
00000000: 3af9 e5bd d8a9 60be d86f a93e b440 b8bd
00000010: 057c 64be 2c58 a9be 304c 323e 82c9 debd
00000020: ab49 083e cc31 c7be cd10 303d bd51 9dbd
00000030: 5918 89be 1fd7 a53e c32c 51bd 2b9e e9bd
00000040: 5a98 99bc 830f 2abd b45e 1cbd a94e c73e
00000050: 1824 23be eaca cebe 2b9e b3be 5c1d 1dbe
00000060: 0246 8ebc 9669 0bbe 0181 04be 6d0d 313e
00000070: d4cd aabd a8df 0e3d fd3e e6be 8eb7 e4bd
00000080: c9c1 26be 7ea2 ab3b 2b2e 89bd 16c9 07be
00000090: fa23 55be d33b 173d 5eef b83c 71ac 1bbe
000000a0: 2aed 98bd 19a5 10be a779 e5bd 8c20 d53d
000000b0: 1ce9 06bd 9105 053c 95f5 3ebe 78ba f0bd
000000c0: 88c6 7a3d 94ff 3ebd 1fdf 563d 0a44 a23b
000000d0: f289 bebd 1b75 96bd a27d 81bd f115 e1bd
000000e0: 47a6 1dbe 068a 5abe 8501 ae3d 945e b9bd
000000f0: 4719 12be b71b 73bd 0a16 85bd 9197 1d3c
00000100: 87e6 4dbd e5dd eb3d 1314 13be 84e4 f5bc
00000110: 449d da3e f2d2 d6bd abec 49be c176 dcbd
00000120: 1e57 5abe 5f2f e4bc 2a66 92be 05a6 d5bd
00000130: f4e6 babd 910e 3f3c 8ecd 2f3e 5711 1b3c
00000140: 1e43 b9bd fb25 12bc aced b4bc 7916 8f3d
00000150: b466 13bf 0185 20bd 232b 183e 6319 7fbe
00000160: c294 e9bd f02d 1ebd baef d1bc 0502 94bd
00000170: 4383 563d c62a 23be c2bc 2dbd 22d4 1cbf
00000180: aa1e 01be 5374 c6be a3d4 1f3e 3e95 243e
00000190: a0e1 473e 5dad 33be 9c17 a1be f6bc 68be
000001a0: c8c5 43be 3e93 08be bff7 a7be 2aef 57be
000001b0: 44f5 36be 326f e0be 7094 a63a d650 b8bd
000001c0: 7b54 f53d 7b68 a73d c0ea 27be cf5e 5ebd
000001d0: 51b6 bf3e 8e51 abbd 9a86 973e 2bf8 6cbe
000001e0: cc17 003d 85af c43d 5ddb 32bd 7f6f 09be
000001f0: e809 55bd 35c6 99bd f10c 93bd 9486 b2bd
00000200: 39c2 99be f180 8fbe 12d2 5ebe 699f 0abd
00000210: 8560 0dbf 760e 3cbd a01c d63e 7486 d3bd
00000220: bce1 bebc d28e 23be 1cd7 71be c9e9 1ebe
00000230: 2a71 27be 4600 3ebe 8d01 fdbd d691 25bd
00000240: ffbd 83ba bef6 3e3d 029d 4dbb 25e3 4abe
00000250: 0804 8abc be64 b13c aed2 08be 7014 b0bd
00000260: a5ec 89be b619 07be 1301 74be 2007 763c
00000270: 2738 d0bd 5b02 f5be d0e5 8abe 88b1 12be
00000280: 832c f0bd 159f 6dbe 49bb a9bd 4675 36be
00000290: 403f eabd f358 7abd f430 bcbd 138d 70be
000002a0: 7903 81bd 9312 a5be ec80 aabd 809f e93d
000002b0: 3f38 eabc 0922 edbd a879 323e b42d f4bd
000002c0: 67b0 04be ffaf 5dbe 088c 073b db86 693d
000002d0: 0894 063f d582 e83d 5a1a e0bd 6368 33be
000002e0: b049 c7bd 73a5 90be 3d23 0a3c 77b5 85bd
000002f0: 82e7 90bd ced2 213d 3b04 61be a084 95bd
00000300: e420 d33c 677f 30be 446a 47be 6a53 283e
00000310: be55 ebbd a780 c7be 4c3a 36bd 5316 a8bd
00000320: 99db 10be 1ca4 533e e26c 1b3c 9381 b7bd
00000330: 6aeb 163c 3c44 26be cb54 73be ebca 97be
00000340: 9982 c5be cda9 fa3c 3c75 02bf 4869 f7bd
00000350: acb6 1cbe 8b50 8ebd 14f8 8cbe c227 02bd
00000360: 37a9 dd3b 24f3 963e ea51 7a3c 6297 733c
00000370: 6307 37bf 07a6 523e 514b c6bd 6564 a6be
00000380: 6fee 11be f3c4 00bf 0b24 43bd 297b 05be
00000390: 0e88 a8bc f119 10bd 32aa 63be 550f 26be
000003a0: 9c84 b8bc 9573 9abd b1e3 d93d 0abf 643e
000003b0: 6f3f dbbe 97e5 40bd b19c 0ebe f7a8 f7bc
000003c0: b572 83be 65da 85be 0a06 6fbd 8525 823b
000003d0: 1162 31be 303e 00be f6f0 89bc 9381 8c3b
000003e0: a123 9e3c 96a5 8ebe 72ec 033d a6b1 19bc
000003f0: 1718 4bbf 2b30 9a3e 83b0 56be 1edc d13d
-0.11229177 -0.2193979 0.33093143 -0.08996716 -0.22312935 -0.33075082 0.17411876 -0.10878278
0.13309352 -0.3890518 0.042984772 -0.07681606 -0.26776388 0.32390687 -0.05106808 -0.11407121
-0.018749405 -0.0415187 -0.038176253 0.389272 -0.15931737 -0.40389186 -0.3508161 -0.15343231
-0.017367367 -0.13614497 -0.12939836 0.17290278 -0.0834004 0.034881264 -0.4496993 -0.11167823
-0.1628486 0.0052378764 -0.06698259 -0.13260302 -0.20814505 0.036922287 0.022575077 -0.152025
-0.074671105 -0.1412548 -0.11204844 0.104065984 -0.032937154 0.008119003 -0.1864837 -0.11754316
0.06122449 -0.046630457 0.05245888 0.0049519585 -0.09303655 -0.07346555 -0.06322791 -0.10990513
-0.15395461 -0.21341714 0.084963836 -0.090512425 -0.14267455 -0.059352603 -0.06498344 0.009618656
-0.050268676 0.115169324 -0.14363126 -0.030016191 0.4269811 -0.104894534 -0.19719188 -0.10764838
-0.21322295 -0.02785462 -0.2859357 -0.10432056 -0.09126082 0.011661188 0.17168257 0.009464583
-0.09046005 -0.008920188 -0.022085987 0.06986708 -0.5757859 -0.039189342 0.14860205 -0.24912028
-0.114053264 -0.03861803 -0.025627006 -0.07226948 0.052371275 -0.15934286 -0.04241634 -0.6126119
-0.12609354 -0.38760623 0.15608458 0.16072556 0.19519663 -0.17546602 -0.31463325 -0.22728333
-0.19118416 -0.13337418 -0.32806203 -0.21087328 -0.17866999 -0.43834835 0.0012709033 -0.08999793
0.11979004 0.08174225 -0.16398144 -0.054289635 0.37443784 -0.08365165 0.2959488 -0.23141544
0.031272694 0.0960379 -0.043666232 -0.13421439 -0.0520114 -0.07508508 -0.07180203 -0.08717075
-0.30030993 -0.28028062 -0.21759823 -0.03384343 -0.552254 -0.04591223 0.41818714 -0.10328379
-0.023300998 -0.1597245 -0.23617214 -0.1551887 -0.16351762 -0.18554792 -0.123538114 -0.040422283
-0.001005113 0.04662203 -0.0031374102 -0.19813211 -0.016847625 0.021654483 -0.13361618 -0.08597648
-0.26938358 -0.13193402 -0.23828535 0.015016347 -0.1016696 -0.4785336 -0.27128458 -0.14325535
-0.1172724 -0.23205216 -0.08287675 -0.17818174 -0.11437845 -0.061119985 -0.091890246 -0.23491316
-0.062994905 -0.32240734 -0.08325371 0.11407375 -0.028591273 -0.11578757 0.1742922 -0.1192278
-0.12957917 -0.21649168 0.002068283 0.057013374 0.5256963 0.11353079 -0.10942526 -0.17520289
-0.09730852 -0.28251228 0.008431253 -0.06528752 -0.070754066 0.03950768 -0.2197427 -0.07300687
0.02577252 -0.172361 -0.19474131 0.1643807 -0.114909634 -0.3896534 -0.04448919 -0.08207383
-0.1414627 0.20668072 0.009486409 -0.08960261 0.0092114005 -0.16236967 -0.23762815 -0.29647002
-0.385762 0.030598545 -0.50960135 -0.12080628 -0.15304059 -0.06948956 -0.2753302 -0.031776197
0.0067645567 0.29482377 0.015278319 0.014867635 -0.71495646 0.20571147 -0.09682334 -0.3249847
-0.14251111 -0.5030052 -0.047641795 -0.13035263 -0.020572688 -0.03518099 -0.22232893 -0.16216786
-0.02252417 -0.07541577 0.10639132 0.223385 -0.42821833 -0.047093954 -0.1392696 -0.030231936
-0.25673452 -0.26143184 -0.05835537 0.003971758 -0.17322566 -0.12523723 -0.016838532 0.0042879074
0.019304099 -0.27860707 0.032207914 -0.009380734 -0.79333633 0.30114874 -0.20965771 0.10247062
