model_weights/w_618.npy (npy, 768 bytes, 1 tensors)

array f4 [160]
0	0x3e13b03a	0.14422694
1	0xbec0bb44	-0.37642872
2	0xbe4b4662	-0.19851068
3	0xbe857843	-0.26068315
4	0xbdda47e7	-0.106582455
5	0xbe201383	-0.15632443
6	0xbe62b6db	-0.22140066
7	0x3da34aef	0.07973277
8	0xbe32f067	-0.17474519
9	0x3f011b3a	0.5043217
10	0xbcbda21a	-0.023148585
11	0xbe63267c	-0.2218265
12	0xbe811a2f	-0.2521529
13	0x3d486b5f	0.048930522
14	0xbee2ab5e	-0.44271368
15	0xbd912f1e	-0.07089065
16	0xbdf7559d	-0.12076876
17	0xbf2d0649	-0.67587715
18	0xbdeca86e	-0.11555563
19	0xbe47b126	-0.1950117
20	0xbdd96c79	-0.10616393
21	0xbe6341f1	-0.22193123
22	0xbe0f9c3e	-0.14024445
23	0xbf0e6589	-0.5562368
24	0xbddce608	-0.107860625
25	0xbd9e8eae	-0.07742058
26	0xbeffbfe9	-0.49951103
27	0xbe57d2d4	-0.21076518
28	0xbe302fd1	-0.1720574
29	0xbcb4cfd7	-0.022071762
30	0x3e10ef6d	0.14153834
31	0x3d8f375e	0.06992982
32	0xbe97a6d4	-0.29619467
33	0xbeb8064c	-0.35942304
34	0xbe3ca354	-0.1842168
35	0xbd7b4975	-0.06134935
36	0xbef32bbc	-0.47494304
37	0xbebb5492	-0.3658796
38	0x3e065a43	0.1312037
39	0xbe0a3830	-0.13497996
40	0xbe9459f8	-0.2897489
41	0xbdd1ff22	-0.10253741
42	0xbe224e94	-0.15850288
43	0xbde672b6	-0.11252348
44	0xbe8e3dd2	-0.2778154
45	0xba63ed22	-0.00086946983
46	0xbe015b99	-0.12632598
47	0xbe162021	-0.14660694
48	0xbe35cdc7	-0.17754279
49	0xbd08c7b7	-0.033393588
50	0xbe0fc958	-0.1404165
51	0xbe13e8b2	-0.14444235
52	0x3df68ce2	0.1203859
53	0xbdef573b	-0.1168656
54	0xbe4a43eb	-0.19752471
55	0xbdd62737	-0.104566984
56	0xbe91b541	-0.28458598
57	0xbe2fcfce	-0.17169115
58	0xbeae9f8d	-0.34106103
59	0xbe0a3943	-0.13498406
60	0x3d9914a5	0.07474641
61	0xbdaec3ce	-0.085334405
62	0xbd9e238f	-0.07721626
63	0xbe918f43	-0.28429613
64	0xbe3d3831	-0.18478467
65	0x3e6d01a1	0.23145153
66	0x3e85a029	0.26098755
67	0xbdaa3a01	-0.083118446
68	0x3d5e3fc0	0.054260015
69	0xbd839244	-0.06424382
70	0x3e043d77	0.12914072
71	0xbca75830	-0.020427793
72	0xbec9b11f	-0.39392945
73	0xbebfaec4	-0.37438023
74	0xbe50e4fb	-0.20399849
75	0xbe6575f1	-0.22408272
76	0xbe9eb6e8	-0.3099892
77	0xbea7b614	-0.32756102
78	0xbdea190c	-0.114305586
79	0xbe64e02e	-0.22351143
80	0xbdf79077	-0.12088101
81	0xbdad7f74	-0.084715754
82	0xbe0985b6	-0.13429913
83	0xbdfd2288	-0.12360102
84	0xbea00a33	-0.3125778
85	0xbdcd46b7	-0.100232534
86	0xbd018afd	-0.03162669
87	0xbe6b9e25	-0.23009546
88	0xbda7b628	-0.081890404
89	0xbe7e793a	-0.24850932
90	0xbe1213bb	-0.14265339
91	0xbeede718	-0.46465373
92	0xbdae1802	-0.08500673
93	0xbdddf016	-0.108368084
94	0xbe2e0387	-0.16993533
95	0xbe587b65	-0.21140821
96	0xbeb853f3	-0.36001548
97	0x3ec2887b	0.3799475
98	0x3ba0f0e9	0.004911531
99	0xbeed1263	-0.4630309
100	0xbea3f8ea	-0.32025844
101	0xbe714a44	-0.23563486
102	0xbe86ec93	-0.26352367
103	0xbf03f0d5	-0.51539356
104	0xbdfb3a0d	-0.12266932
105	0xbea27c36	-0.3173539
106	0xbf0a021a	-0.53909457
107	0x3d93cb0f	0.07216465
108	0x3da42faa	0.08016904
109	0xbe1825e8	-0.1485821
110	0xbeb64ba3	-0.3560458
111	0xbe6538fd	-0.2238502
112	0xbe51b87c	-0.20480531
113	0x3d0f933a	0.035052516
114	0x3c575aaa	0.013144175
115	0xbd812f4a	-0.06307848
116	0xbe2a13ac	-0.16609067
117	0xbe7fb5f5	-0.24971755
118	0x3d1bc3ed	0.038028646
119	0xbd94f228	-0.0727275
120	0xbdcdcd9c	-0.100489825
121	0xbe5869ee	-0.21134159
122	0xbdfe6667	-0.124218754
123	0xbe3b6e7e	-0.18303868
124	0xbdee207a	-0.11627288
125	0xbe4ee8ec	-0.2020604
126	0xbe3aeb75	-0.18253882
127	0xbe798393	-0.24366598
128	0xbeebe74a	-0.46074897
129	0xbe5e4790	-0.21706986
130	0x3d3425a7	0.04398122
131	0x3e99548e	0.29947323
132	0xbe947c6d	-0.2900118
133	0xbd20a5d7	-0.039220657
134	0xbe27f676	-0.16402611
135	0xbc933ed6	-0.017974298
136	0xbd7e8123	-0.062134873
137	0xbeab8fad	-0.33508053
138	0xbda9ed07	-0.082971625
139	0x3e0e6d20	0.13908815
140	0xbe96db15	-0.2946402
141	0xbefaf2e4	-0.49013436
142	0xbd7da76f	-0.061927255
143	0x3d8f5b0b	0.06999787
144	0x3c673b6f	0.014113291
145	0xbdca5271	-0.09879006
146	0xbd2b6195	-0.04184111
147	0xbe2ba1cf	-0.16760944
148	0xbe9ed7fc	-0.31024158
149	0x3d7d16b1	0.06178922
150	0xbe0f60c4	-0.14001757
151	0xbe580087	-0.21093951
152	0xbe709339	-0.23493661
153	0xbd097178	-0.033555478
154	0xbe9dbd50	-0.30808496
155	0xbed8471a	-0.42241746
156	0xbe632c53	-0.22184877
157	0xbe86c85c	-0.26324737
158	0x3cd93ef8	0.026519284
159	0xbeaae65b	-0.33378872
