model_weights/w_620.npy (npy, 835712 bytes, 1 tensors)

array f4 [1, 1, 1088, 192]
0	0xb9a0fb57	-0.0003070484
1	0xbccaf5fe	-0.024775501
2	0x3d1400e4	0.036133662
3	0x3d2e0da0	0.042493463
4	0xbd0369b8	-0.032083243
5	0xbc461069	-0.012088873
6	0x3d02e54e	0.031956963
7	0x3c7f8bd5	0.015597303
8	0xbcf76a37	-0.030202014
9	0xbc2a9eab	-0.010413806
10	0xbcd47bb0	-0.025937885
11	0xbd04e15a	-0.032441474
12	0x3c9856cc	0.018596075
13	0xbb252111	-0.002519671
14	0x3c8f4011	0.017486604
15	0xbc2b32d3	-0.010449129
16	0xba575e0b	-0.00082156126
17	0xbab2aa89	-0.0013631146
18	0x3c9a8349	0.01886143
19	0xbd0c4130	-0.034241855
20	0xbca43fe0	-0.02004999
21	0xbd2b6c09	-0.041851077
22	0xbad7fcd9	-0.0016478553
23	0xbc0b60a4	-0.008506928
24	0xbd29d1c1	-0.041459803
25	0xbc33e991	-0.01098098
26	0x3a7bd4c9	0.00096065976
27	0xbaf7c112	-0.0018902144
28	0x3cb2334d	0.021752978
29	0x3bf8f711	0.007597812
30	0x3c6f9d33	0.014624882
31	0xba442563	-0.00074823777
32	0xbb97b9f3	-0.004630321
33	0x3cd002c5	0.025391946
34	0xbc486e7c	-0.012233373
35	0x3d99e1e7	0.075137906
36	0x3c7e0b72	0.015505658
37	0xbad92625	-0.0016567154
38	0xbbaac9b2	-0.0052120322
39	0x3d1f5557	0.038899746
40	0xbcc63335	-0.02419434
41	0xbc95df62	-0.018294994
42	0x3c1edcb1	0.009696172
43	0xbcc703a0	-0.02429372
44	0x3b973cf0	0.0046154186
45	0x3ca79774	0.02045796
46	0x3c285184	0.010273341
47	0xbc6d9236	-0.014500191
48	0xbd478069	-0.048706446
49	0x3b1387f6	0.002251146
50	0xba57d863	-0.0008233843
51	0xbc887c86	-0.01666094
52	0xbc2a6917	-0.010401032
53	0xbbbd5fab	-0.005779227
54	0xbcb6b123	-0.022301262
55	0xbd08bddc	-0.03338419
56	0xbc2001a3	-0.009766015
57	0x3ca382c2	0.019959811
58	0xbc10870a	-0.008821258
59	0xbd3ed0a8	-0.04658571
60	0xbb275868	-0.0025534872
61	0xbb9623ee	-0.00458192
62	0xbcc0d6a9	-0.023539858
63	0xbcdd203d	-0.026992911
64	0xbcb8c924	-0.022556849
65	0x3ca88664	0.020571895
66	0x3cd2d869	0.025737958
67	0xbbd3e161	-0.0064660762
68	0xbd1e0f15	-0.038588602
69	0x3c6f3bb1	0.014601634
70	0xbc3bea60	-0.011469454
71	0xbc43104d	-0.011905742
72	0xbc309a63	-0.010778996
73	0x3bcb9482	0.006212772
74	0xbc829f41	-0.015945079
75	0x3cac0814	0.020999946
76	0x3cc6f454	0.024286427
77	0x3b3d2bf9	0.002886532
78	0x3b2e0c99	0.0026557802
79	0xbc0b9cee	-0.008521302
80	0xbccd6bd4	-0.02507583
81	0x3bdd4bb7	0.0067534107
82	0x3c19799c	0.009367373
83	0xbb08f52f	-0.0020898094
84	0x3bc1f9b2	0.0059196586
85	0xbca449dd	-0.020054752
86	0x3ca1dd88	0.019758955
87	0x3a7e3e06	0.0009698573
88	0x3b213878	0.0024600308
89	0xbcf66a09	-0.030079858
90	0xbb01d454	-0.0019810395
91	0x3cbe4fc6	0.023231398
92	0x3c9f4fba	0.019447196
93	0x3c79d183	0.015247705
94	0x3d2d4142	0.042298563
95	0xbca7f426	-0.020502161
96	0xbcbbd09d	-0.022926623
97	0xbc8caf0a	-0.017173309
98	0xbd1aaf82	-0.037765034
99	0xbcb8a832	-0.02254114
100	0x3bcaf15f	0.0061933245
101	0xbcb6f442	-0.022333268
102	0xbbb07e64	-0.0053861607
103	0xbc82bfe2	-0.015960637
104	0xbc8d854c	-0.017275475
105	0x3c2d6398	0.010582827
106	0x3baf5348	0.005350504
107	0x3cce3478	0.025171503
108	0xbcca2dc4	-0.024680026
109	0x3cea08f3	0.02856872
110	0xbc911e3d	-0.017714614
111	0xbd155244	-0.036455408
112	0x3d29844a	0.041385926
113	0x3c958174	0.018250205
114	0xbcf8046c	-0.030275546
115	0xbc3617e3	-0.0111140935
116	0x3cc961bd	0.024582738
117	0x3c1df3c5	0.009640639
118	0xbd07dd6c	-0.03317015
119	0xbcd965ac	-0.026537739
120	0x3ca35955	0.019940058
121	0xbcb59f23	-0.022170609
122	0x3c95dc2e	0.018293466
123	0xbbe05491	-0.0068460186
124	0xbc8537bc	-0.016261928
125	0xbd01ad1a	-0.031659223
126	0x3c2c3c5f	0.01051244
127	0xbd028d40	-0.031872988
128	0xbd71e75b	-0.05905853
129	0x3d415882	0.04720355
130	0x3c9724ed	0.018450225
131	0x3bf03e74	0.0073316637
132	0xbd5b2e6c	-0.05351107
133	0xbbe14475	-0.006874616
134	0x3d528e48	0.05140522
135	0x3d01872a	0.031623043
136	0xbd055dda	-0.032560207
137	0x3cfb0486	0.030641805
138	0x3d4f9c8a	0.050686397
139	0x3d23969f	0.039938565
140	0x3c59e3ed	0.013298971
141	0xbd298d98	-0.0413948
142	0xbcb8d865	-0.022564122
143	0x3c70fac5	0.014708226
144	0x3c73ed65	0.014888142
145	0xba763b85	-0.00093930244
146	0xbc352e18	-0.011058353
147	0x3cd7b756	0.026332539
148	0xbc6f397d	-0.014601109
149	0x3c97b9e8	0.018521264
150	0x3ca96e45	0.020682463
151	0xbc8bdba6	-0.01707251
152	0xbc54fb42	-0.012999358
153	0x3c269a54	0.010168631
154	0xbccf99e2	-0.025341932
155	0xbc95ca80	-0.018285036
156	0xbcddb270	-0.027062625
157	0xbbf995d7	-0.0076167393
158	0xbbfc4157	-0.007698219
159	0xbb0a051e	-0.002106018
160	0x3ce44fa2	0.027870003
161	0xbd279f6c	-0.04092352
162	0x3ccfe93d	0.025379771
163	0xbc574201	-0.013138295
164	0xbca265ca	-0.019823927
165	0x3cb65f65	0.022262285
166	0x3c7017bb	0.014654095
167	0x3bdda091	0.006763526
168	0xbca866f5	-0.020556906
169	0xbc938d47	-0.018011702
170	0xbbb394df	-0.0054803933
171	0xbcac2e20	-0.021018088
172	0x3b62012b	0.003448556
173	0x3ba18b0c	0.0049299058
174	0xbc6b6c76	-0.014369121
175	0x3cb0ca19	0.021580743
176	0x3c705a9b	0.0146700395
177	0x3cec3ec1	0.028838517
178	0x3c05b69f	0.008161216
179	0x3cab47e5	0.020908305
180	0x3d990bbe	0.07472943
181	0x3c8272aa	0.015923817
182	0xbd35554a	-0.04427079
183	0xbcc8dc73	-0.02451918
184	0xbba90e70	-0.005159192
185	0x3bcf09bd	0.0063182996
186	0x3c1326b0	0.008981392
187	0x3c955421	0.018228592
188	0xbbec773c	-0.0072163623
189	0x3d008b40	0.0313828
190	0xbc7bf402	-0.015378
191	0xbc511b62	-0.012762876
192	0x3bb1d9cd	0.005427575
193	0x3c53066c	0.012879949
194	0x3c88c5da	0.016695905
195	0xbd08e5d4	-0.033422306
196	0x3ba24a15	0.004952679
197	0xbb987e71	-0.004653745
198	0x3a31bf74	0.0006780543
199	0x3c4a19e1	0.012335272
200	0xbbf24e18	-0.0073945634
201	0xbb24dc7f	-0.002515584
202	0xbd334ff6	-0.04377743
203	0xbd25e476	-0.04050108
204	0xbc560dda	-0.013064826
205	0x3c812aac	0.015767418
206	0x3b1ad19f	0.002362348
207	0x3a281749	0.0006412161
208	0x3cec0019	0.02880864
209	0xbd02c062	-0.03192175
210	0x3ccbafe0	0.024864137
211	0xbc5e4250	-0.013565615
212	0x3bfba36b	0.007679393
213	0x3c022c99	0.007945203
214	0x3c28aa39	0.0102944905
215	0xbd14ff4e	-0.03637629
216	0x3c8c1754	0.017100967
217	0xbc971c2a	-0.018446047
218	0xbc8fe291	-0.01756409
219	0xbb249a77	-0.0025116482
220	0x3d1c2fb6	0.03813144
221	0xbcdb86a6	-0.026797604
222	0x3cbd03ce	0.023073103
223	0xbbf8d18a	-0.0075933384
224	0x3c9c8926	0.019108366
225	0xbd1fcd12	-0.03901393
226	0xbca51b29	-0.020154553
227	0xbada5d46	-0.0016659878
228	0x3c229984	0.009924296
229	0xbbde647d	-0.0067868815
230	0x3b9e30f2	0.004827612
231	0x3c8acbda	0.016942907
232	0x3c6dfef1	0.014526115
233	0x3d945576	0.07242863
234	0x3d1c6500	0.03818226
235	0xbce36b32	-0.027761076
236	0xbcaaff42	-0.02087367
237	0x3c142558	0.009042107
238	0xbca96d35	-0.020681957
239	0xbcf4d893	-0.029888427
240	0xbca8028a	-0.020509023
241	0x3b1b28cc	0.002367544
242	0x3cd3a12f	0.025833694
243	0xbc0a3a36	-0.00843673
244	0x3c04a1a1	0.008095176
245	0xbb00f730	-0.0019678585
246	0x3cd08ba2	0.025457207
247	0x3d557a69	0.052118693
248	0xbc1725da	-0.009225333
249	0x3d3a9f9b	0.045562368
250	0x3b09d6a2	0.0021032472
251	0x3c890ec8	0.016730681
252	0xbbe7703c	-0.00706294
253	0x3cd544f8	0.026033863
254	0x3ce440b3	0.027862882
255	0x3bf8dc5a	0.0075946273
