model_weights/w_634.npy (npy, 573568 bytes, 1 tensors)

array f4 [1, 7, 128, 160]
0.0099541 0.032011777 -0.013504272 -0.007972513 -8.182105e-05 0.0044590435 -0.02273214 -0.0415778
-0.0004068899 -0.0032881312 0.043715563 0.02147521 -0.031921174 -0.014178335 -0.035230696 -0.0010715341
0.01763853 0.01666878 0.014290081 -0.020785177 0.015327319 0.008289174 -0.0041439515 -0.008516622
-0.0072508357 -0.01096827 -0.011293797 0.040186636 -0.008733965 -0.0106322095 -0.013386827 -0.047558658
0.039339732 0.00642035 0.004907864 0.0076831826 -0.014108856 0.0032973816 0.0035940597 -0.0017325552
-0.030077368 -0.0199627 -0.025339564 -0.010937117 -0.021981915 -0.00905468 -0.04282905 -0.013084346
-0.006164496 0.010756347 -0.03602448 0.08875764 -0.0059187026 -0.006354998 -0.027224664 -0.019778885
0.0060504004 0.0012736318 -0.028264627 0.018298775 -0.023164963 0.0230696 0.0054063876 -0.007958048
-0.0070031984 -0.034138612 -0.01458394 0.023889078 0.0015316353 -0.050216474 0.0035356958 -0.026194686
-0.0064387363 0.00403127 -0.028467614 -0.016683873 -0.026209055 -0.009826808 0.0053279675 -0.0065178173
0.032138515 0.01933288 -0.012784489 0.08373304 0.005701819 0.00398648 -0.0018396906 -0.017120782
0.047623843 -0.023718107 0.05814463 -0.010693652 0.009995102 -0.01586263 0.016521478 -0.007990178
-0.0106872 0.0025970992 -0.002557396 0.09267031 0.028178161 -0.016309127 -0.016589863 -0.012188197
0.00017435936 0.01158358 0.00431772 -0.017940871 -0.0022281192 -0.014064556 -0.021512633 -0.0067597306
0.009986225 -0.020266727 0.006353819 -0.058183506 -0.009595711 -0.017455257 -0.019499606 0.023607211
-0.008143727 -0.003295887 0.037713785 -0.026543055 -0.004541289 -0.022004185 -0.03305513 -0.034915138
-0.009358883 -0.015330899 -0.0028423185 0.0034616054 -0.009184617 -0.022640277 0.02812797 -0.020109108
-0.017897012 0.005134176 -0.002378815 0.0016453537 0.03106745 -0.016917892 0.021843871 -0.013850567
0.02940569 0.012522359 -0.013636513 -0.039668646 -0.01924924 0.03526299 0.017060567 0.020352818
-0.028032547 0.006520889 0.00974183 -0.019048763 -0.009999751 -0.015787441 0.009995603 0.021780694
-0.025575489 0.016263885 0.012188568 -0.018100856 -0.011882551 -0.0149498535 0.047435332 0.00894124
-0.004693395 0.0012547591 0.013902703 0.02715605 -0.011592235 -0.009077644 -0.0073635434 0.008830007
-0.03879768 0.009841819 0.0073436694 -0.011848163 -0.015881872 -0.032828912 0.0071671894 0.007922466
-0.004834209 0.019621788 -0.0012429304 0.003128564 -0.031083371 -0.014609917 -0.012415001 -0.026866376
-0.016211085 0.010274124 -0.0076925843 0.01706448 -0.033605807 0.017548678 0.021001883 0.0032743064
-0.03435529 0.019529307 -0.0013946061 0.006511305 0.0045822114 0.0062435404 0.011111366 -0.00824375
-0.027062628 0.0015927936 0.006774397 0.040034086 0.008686105 0.005333509 0.0038221849 -0.013304346
-0.016521294 0.036565937 0.0048190346 0.0013097277 0.01348755 0.00992051 0.0069688777 -0.0046397937
-0.028553328 -0.00062233716 -0.031660985 -0.002976066 0.008795266 -0.019884786 -0.017504146 -0.007588815
0.005365552 0.003038175 0.009811404 -0.022948464 -0.02002184 0.0047411094 0.025591016 0.017698241
0.041962482 0.025512101 0.0153932925 -0.0044869217 -0.040342785 0.0016015859 -0.022145446 0.044404283
0.03137862 -0.01343706 -0.021261107 0.0074275257 -0.001604938 0.029924128 -0.022121437 -0.051596485
00000000: 8516 233c c81e 033d 0641 5dbc 259f 02bc
00000010: 5797 abb8 2b1d 923b c138 babc 7c4d 2abd
00000020: d753 d5b9 b07d 57bb 170f 333d c8ec af3c
00000030: c7bf 02bd 3f4c 68bc 104e 10bd b872 8cba
00000040: ae7e 903c f78c 883c f220 6a3c ad45 aabc
00000050: 6f1f 7b3c 51cf 073c fcc9 87bb 4d89 0bbc
00000060: 6b98 edbb 42b4 33bc 9e09 39bc be9a 243d
00000070: e818 0fbc b832 2ebc 6c54 5bbc decc 42bd
00000080: b322 213d cd61 d23b 26d2 a03b 35c3 fb3b
00000090: d528 67bc e218 583b 518a 6b3b e816 e3ba
000000a0: d064 f6bc d188 a3bc eb94 cfbc 9831 33bc
000000b0: 6b13 b4bc 155a 14bc 846d 2fbd ba5f 56bc
000000c0: 8aff c9bb 643b 303c 688e 13bd 91c6 b53d
000000d0: adf1 c1bb 963d d0bb 4206 dfbc 5407 a2bc
000000e0: 7042 c63b feef a63a 388b e7bc 50e7 953c
000000f0: 73c4 bdbc 75fc bc3c 1128 b13b 7962 02bc
00000100: 167b e5bb eed4 0bbd 7af1 6ebc 07b3 c33c
00000110: 27c1 c83a caaf 4dbd 22b7 673b 3d96 d6bc
00000120: 09fc d2bb be18 843b ea34 e9bc 9eac 88bc
00000130: 5fb4 d6bc 9f00 21bc 3b96 ae3b 6a93 d5bb
00000140: ada3 033d fd5f 9e3c 0976 51bc 3a7c ab3d
00000150: 53d6 ba3b 05a1 823b c621 f1ba e240 8cbc
00000160: 3811 433d 7a4c c2bc 1029 6e3d 6d34 2fbc
00000170: 7fc2 233c 59f2 81bc 0d58 873c 3ce9 02bc
00000180: 5e19 2fbc 1834 2a3b fc99 27bb eec9 bd3d
00000190: e3d5 e63c b89a 85bc 77e7 87bc 01b1 47bc
000001a0: 3cd4 3639 0ec9 3d3c a97b 8d3b bcf8 92bc
000001b0: a305 12bb 066f 66bc 433b b0bc bb80 ddbb
000001c0: 439d 233c 6806 a6bc b233 d03b d451 6ebd
000001d0: 5437 1dbc 54fe 8ebc a3bd 9fbc e963 c13c
000001e0: 446d 05bc cfff 57bb c579 1a3d d270 d9bc
000001f0: 18cf 94bb 1f42 b4bc d164 07bd 2d03 0fbd
00000200: 0056 19bc 732e 7bbc 3146 3abb 1adc 623b
00000210: 137b 16bc 1a78 b9bc a16c e63c dbbb a4bc
00000220: c19c 92bc 973c a83b e5e5 1bbb e9a8 d73a
00000230: 2a81 fe3c 6497 8abc ebf1 b23c 7ded 62bc
00000240: 34e4 f03c 952a 4d3c ae6b 5fbc 977b 22bd
00000250: 95b0 9dbc ed6f 103d 9ac2 8b3c f4ba a63c
00000260: 83a4 e5bc 2ead d53b 329c 1f3c 270c 9cbc
00000270: ffd5 23bc aa54 81bc 99c4 233c 6d6d b23c
00000280: b083 d1bc d73b 853c 8fb2 473c 3f48 94bc
00000290: 08af 42bc 3bf0 74bc 8d4b 423d 477e 123c
000002a0: 0dcb 99bb bb76 a43a 2ac8 633c 5d76 de3c
000002b0: 5ced 3dbc 66ba 14bc e149 f1bb bcab 103c
000002c0: 51ea 1ebd 953f 213c 2aa3 f03b cc1e 42bc
000002d0: b31a 82bc 9c77 06bd beda ea3b 3bcd 013c
000002e0: 4968 9ebb dfbd a03c d3e9 a2ba 9808 4d3b
000002f0: 8ea2 febc 6f5e 6fbc 4a68 4bbc e016 dcbc
00000300: 1ccd 84bc cd54 283c 1312 fcbb cfca 8b3c
00000310: 3ea6 09bd 3fc2 8f3c 240c ac3c bf95 563b
00000320: 22b8 0cbd edfb 9f3c 37cb b6ba c95c d53b
00000330: 6026 963b 9d96 cc3b 720c 363c cb10 07bc
00000340: 72b2 ddbc 49c5 d03a c3fb dd3b c8fa 233d
00000350: 2a50 0e3c b7c4 ae3b 9f7d 7a3b 79fa 59bc
00000360: aa57 87bc 2ac6 153d fee8 9d3b 2bab ab3a
00000370: e3fa 5c3c a389 223c 2f5b e43b 6909 98bb
00000380: abe8 e9bc 5724 23ba f3ae 01bd 1a0a 43bb
00000390: 051a 103c 6be5 a2bc db64 8fbc 98ab f8bb
000003a0: 83d1 af3b 1e1c 473b 03c0 203c 6bfe bbbc
000003b0: d804 a4bc 4f5b 9b3b 40a4 d13c e7fb 903c
000003c0: dae0 2b3d c1fe d03c 2634 7c3c 0707 93bb
000003d0: 7a3e 25bd 4eec d13a 5e6a b5bc 44e1 353d
000003e0: de86 003d 1d27 5cbc c62b aebc 9a62 f33b
000003f0: c85c d2ba 7223 f53c 0438 b5bc d656 53bd
