model_weights/w_775.npy (npy, 688256 bytes, 1 tensors)

array f4 [3, 1, 224, 256]
0.031049302 -0.0091129625 -0.011639684 0.0160454 -0.020625342 -0.009789486 0.0014447062 -0.01516594
0.0011314454 -0.027489586 0.028602568 -0.02251585 0.04986979 -0.0094089275 -0.03179792 -0.0138985915
0.016380815 -0.0049952907 0.08876797 0.011384 0.02274288 -0.00403315 -0.010181983 -0.020474019
-0.0017418622 -0.02465487 -0.017599137 -0.018227693 -0.0027669973 0.012993544 0.04430013 0.025559504
0.022279354 0.012290527 0.011984343 0.00029105492 0.012790264 0.005386082 0.008793709 -0.024193624
-0.020029949 -0.006148101 -0.019152852 -0.028879743 0.007783006 -0.020056395 -0.018808011 -0.0079799015
-0.007583195 -0.013771507 0.0050911554 0.020425294 0.005484242 0.008555168 0.017029133 -0.009719708
-0.004387442 0.00018277066 0.018636428 0.0015541048 0.0019831285 0.03358732 -0.0071148607 0.014343209
-0.006449803 -0.017127635 0.00903876 0.033104476 0.028614897 0.01244796 0.013086812 -0.002681216
0.0057367724 -0.009890728 -0.021491162 0.08581694 -0.0077231512 0.012818667 0.058472443 -0.0007545709
-0.016566396 -0.006116931 0.00799333 -0.0030678932 -0.008439394 -0.008123042 -0.014594177 0.035364047
-0.026322601 -0.012710748 -0.014442792 -0.024420686 0.008289767 0.018167853 -0.015023036 -0.0016093263
0.004230806 -0.013661414 0.02462841 -0.017907523 -0.020381482 -0.00040852424 -0.0032227528 0.018018086
0.0034708017 -0.015555822 0.016192615 -0.014749006 -0.0071599064 -0.013691328 -0.017393338 -0.0075034783
-0.003047809 -0.008515389 -0.011026187 0.0037312238 0.002912058 -0.027019069 0.007696467 -0.008644214
0.012267994 0.010918318 -0.016575074 0.055379093 -0.0012710062 0.007297927 -0.025968835 -0.010627399
-0.0035963538 0.025074651 -0.0205091 0.01142963 0.013218449 -0.034353856 -0.021757863 0.0031209756
-0.010314942 -0.0044601574 0.0053727003 -0.015289781 -0.017393801 0.013353523 -0.01258246 -0.010779227
-0.015652992 -0.015958143 -0.009684244 0.0025617306 -0.028471502 0.012828481 -0.0053308136 -0.009925639
0.015915243 0.016887857 0.003223365 -0.008686825 -0.020844422 0.0128537575 -0.016812634 0.011503599
-0.027476678 -0.008825332 -0.019435488 -0.014349784 -0.0036555843 -0.009687547 -0.02690438 -0.02318348
-0.0075018257 -0.01359114 -0.017113196 -0.005383195 -0.012055675 -0.0122719705 0.011350052 -0.0014220448
-0.005269284 -0.001186087 0.015706895 -0.02077534 0.00049397215 -0.0114853885 -0.003251432 0.004050332
0.011662734 -0.007991709 -0.028402748 0.012540043 0.004874492 0.01326441 0.0038762896 -0.00665049
0.023572894 -0.018744154 -0.00013133993 -0.011932318 -0.009309113 -0.007980959 -0.003591275 -0.03455326
-0.033184163 -0.011874766 0.0068536536 0.0018746193 -0.010716034 0.014439424 -0.0072399075 -0.0020630278
0.023219645 0.015513964 0.000489088 -0.012643054 -0.004038542 -0.017013887 0.0108583765 0.029183699
-0.031333752 -0.0013328578 0.008450248 0.019408675 -0.003735194 -0.004683181 -0.024968242 -0.0073230695
0.007602336 0.033511564 -0.009091978 -0.0121887 0.0038734248 -0.0013062434 -0.023556825 0.07764209
-0.0012597163 0.0048654904 0.007383273 -0.01731648 0.039942067 0.0011860995 -0.0063029677 -0.03297541
-0.00024985784 -0.007708527 -0.018908098 -0.009888492 -0.0010002548 -0.01926298 0.0190446 -0.00038200946
0.0073967865 0.059142914 -0.008375756 -0.013335037 0.00035928912 0.009458913 0.0100915 0.02780528
00000000: 1b5b fe3c 894e 15bc 60b4 3ebc a571 833c
00000010: 7af6 a8bc 1564 20bc 4c5c bd3a 907a 78bc
00000020: 024d 943a d731 e1bc ef4f ea3c 2973 b8bc
00000030: 4444 4c3d e727 1abc 893e 02bd ebb6 63bc
00000040: 0f31 863c 89af a3bb fbcb b53d f583 3a3c
00000050: 474f ba3c 8428 84bb 55d2 26bc 21b9 a7bc
00000060: 324f e4ba 03f9 c9bc 112c 90bc 3e52 95bc
00000070: 8356 35bb e0e2 543c 0e74 353d 2a62 d13c
00000080: 3183 b63c 355e 493c fa59 443c bb98 9839
00000090: 418e 513c bb7d b03b 7d13 103c b531 c6bc
000000a0: d915 a4bc 0276 c9bb 71e6 9cbc 3695 ecbc
000000b0: 9608 ff3b 4f4d a4bc 4213 9abc 22be 02bc
000000c0: 737c f8bb e3a1 61bc b5d3 a63b f252 a73c
000000d0: 28b5 b33b fa2a 0c3c ae80 8b3c 693f 1fbc
000000e0: 88c4 8fbb 20a6 3f39 6cab 983c 1bb3 cb3a
000000f0: 60f7 013b dc92 093d c723 e9bb c7ff 6a3c
00000100: de58 d3bb 414f 8cbc 4f17 143c 8f98 073d
00000110: ca69 ea3c 87f2 4b3c 116a 563c 57b7 2fbb
00000120: 89fb bb3b b80c 22bc 3c0e b0bc cbc0 af3d
00000130: 7d12 fdbb 6305 523c cd80 6f3d 65ce 45ba
00000140: 40b6 87bc 8970 c8bb 75f6 023c b50e 49bb
00000150: 6245 0abc 8216 05bc 6a1c 6fbc e4d9 103d
00000160: 7fa2 d7bc be40 50bc 76a1 6cbc e40d c8bc
00000170: ced1 073c c0d4 943c 2e23 76bc 08f0 d2ba
00000180: 93a2 8a3b 20d4 5fbc 85c1 c93c ccb2 92bc
00000190: 11f7 a6bc 322f d6b9 d234 53bb aa9a 933c
000001a0: 6476 633b d9dd 7ebc 60a6 843c d1a5 71bc
000001b0: a69d eabb 9751 60bc 797c 8ebc bddf f5bb
000001c0: c0bd 47bb 2184 0bbc 2ea7 34bc 8c87 743b
000001d0: 3ad8 3e3b 1857 ddbc a532 fc3b 76a0 0dbc
000001e0: b2ff 483c bfe2 323c 73c8 87bc 30d5 623d
000001f0: e497 a6ba 7323 ef3b 98bc d4bc 8b1e 2ebc
00000200: ceb0 6bbb 5b69 cd3c b302 a8bc 5843 3b3c
00000210: 3292 583c a1b6 0cbd 8c3d b2bc 4889 4c3b
00000220: 0100 29bc 8326 92bb 7a0d b03b fd81 7abc
00000230: 727d 8ebc bcc8 5a3c aa26 4ebc 5b9b 30bc
00000240: b43a 80bc a7ba 82bc aaaa 1ebc b5e2 273b
00000250: 113d e9bc 8d2e 523c 1bae aebb 269f 22bc
00000260: af60 823c 6758 8a3c 173f 533b 2f53 0ebc
00000270: ecc1 aabc 9198 523c a6ba 89bc 9779 3c3c
00000280: c516 e1bc 2098 10bc 2c37 9fbc 5b1b 6bbc
00000290: 8792 6fbb 84b8 1ebc 9366 dcbc 48eb bdbc
000002a0: e0d1 f5bb 5fad 5ebc f930 8cbc 8365 b0bb
000002b0: 2a85 45bc 6010 49bc 92f5 393c e863 baba
000002c0: f5a9 acbb 7a76 9bba bfab 803c 0c31 aabc
000002d0: e97d 013a 362d 3cbc fa15 55bb a6b8 843b
000002e0: 0d15 3f3c a8ef 02bc e1ac e8bc c174 4d3c
000002f0: 34ba 9f3b f852 593c 5909 7e3b 5bec d9bb
00000300: f11b c13c 578d 99bc 4bb8 09b9 c57f 43bc
00000310: 4085 18bc 91c2 02bc 995b 6bbb b887 0dbd
00000320: 1eec 07bd 618e 42bc 9d94 e03b c9b5 f53a
00000330: 4e92 2fbc 5593 6c3c bf3c edbb dd33 07bb
00000340: 2037 be3c 482e 7e3c 2436 003a d024 4fbc
00000350: bf55 84bb b560 8bbc 55e7 313c a712 ef3c
00000360: d257 00bd 49b3 aeba e972 0a3c f1fe 9e3c
00000370: 28ca 74bb 5f75 99bb 338a ccbc 5cf6 efbb
00000380: 041d f93b 6c43 093d 85f6 14bc 1db3 47bc
00000390: 49d9 7d3b 4136 abba 3efa c0bc d102 9f3d
000003a0: 111d a5ba b16e 9f3b 62ef f13b 4adb 8dbc
000003b0: 4b9a 233d e576 9b3a 2089 cebb 3911 07bd
000003c0: 5aff 82b9 d097 fcbb 28e5 9abc 5703 22bc
000003d0: fb1a 83ba 66cd 9dbc 6c03 9c3c 7148 c8b9
000003e0: be60 f23b d73f 723d 783a 09bc 337b 5abc
000003f0: f85e bc39 8ef9 1a3c d256 253c e6c7 e33c
