model_weights/w_801.npy (npy, 8448 bytes, 1 tensors)

array f4 [2080]
000000 35 00 bd bd 93 6b bf bd cb 1f 2d 3c c3 d3 58 be
       -0.09228555 -0.0934669 0.010566662 -0.2117453
000010 a9 5d 86 3c 7d 12 93 bc de af 9a 3d 33 51 8a bd
       0.016402083 -0.017953152 0.07553075 -0.06753769
000020 ae af 68 bc 36 6b 46 bd 16 78 19 bb 9a 3c 67 3d
       -0.014202042 -0.048442088 -0.0023417524 0.05645428
000030 a6 bf 9a 3b 54 69 49 3d 61 2a ad bb a5 be 43 3d
       0.0047225533 0.049172714 -0.005284593 0.047789235
000040 6a a8 7d bc 93 7a 4d bd e8 65 19 3c 90 d6 8c bc
       -0.015482048 -0.050165724 0.009362675 -0.017192155
000050 10 44 ba 3c d8 ce 96 bd d5 0d 2b bd ca 85 02 bd
       0.022737533 -0.07363671 -0.041761238 -0.031865872
000060 8c 98 f1 bc e5 a3 9d bb 0b 40 8a ba a7 a6 e8 bb
       -0.029491685 -0.0048107975 -0.0010547651 -0.0070999446
000070 4d 5c 30 3d a4 d5 19 3d 22 1d a3 bd a3 3b 0c bd
       0.043056775 0.03755726 -0.07964541 -0.03423656
000080 26 ec 30 bc bc 7a 98 bc 1e b0 70 3d 6a 58 69 bd
       -0.01079849 -0.018613212 0.05876171 -0.056969084
000090 30 79 b1 3c 16 27 88 bd fa c3 5f 3c 9c 1e 0b bd
       0.021664232 -0.0664808 0.013657564 -0.03396474
0000a0 70 51 8a 3d 85 45 a5 3c 52 66 3f bd bb eb 5f bc
       0.06753814 0.020174751 -0.04672844 -0.013667042
0000b0 f9 44 00 3e 6a 1d ba bd 7a 19 f3 3c 99 2c 8f bd
       0.12526311 -0.090876415 0.029675234 -0.06990928
0000c0 34 24 df b9 fc ff 84 3d 48 5f 34 bd 7e d5 12 bc
       -0.00042560848 0.06494138 -0.04403618 -0.008962033
0000d0 1f 5b a8 bc 05 40 48 bd 66 93 40 bd 72 1a 70 bc
       -0.020551262 -0.04888918 -0.04701557 -0.014654743
0000e0 3c 34 cc 3c ad a5 e2 3c 5a 1c 18 bd da 70 68 bd
       0.024927251 0.027666891 -0.037136413 -0.05674825
0000f0 c7 50 10 3c 13 0d 0e bd 37 d3 40 3c 37 73 05 bd
       0.008808321 -0.034680437 0.011769108 -0.03258058
000100 ea b4 8f bd ba a8 b1 3c 20 a3 96 bc b4 f4 5e 3c
       -0.070169285 0.0216869 -0.018388331 0.013608146
000110 1c a5 56 bd 26 de ec 3b 57 22 34 bc 8d 23 32 bc
       -0.052403554 0.0072286306 -0.010994515 -0.010872734
000120 cc 7e 01 bd a0 6b cd bb 4a 68 24 bc ed f5 06 be
       -0.031615064 -0.0062689334 -0.01003463 -0.1317975
000130 ff 57 02 bd c5 22 d2 3b 92 03 48 3c e5 c5 81 bd
       -0.0318222 0.0064128363 0.0122078825 -0.063365735
000140 56 4a d1 bc e5 ec 9c bd 17 1b 46 bd f4 62 95 bd
       -0.025548141 -0.076623715 -0.04836568 -0.072942644
000150 82 cc dc 3c fb 55 0d bd 8d 94 0d bc 82 c5 95 bd
       0.026952986 -0.034505825 -0.008641374 -0.07313062
000160 d1 a4 98 bd 90 f6 8b 3d ca ce 1e bd 04 f0 1f bc
       -0.07453311 0.068341374 -0.03877143 -0.009761814
000170 71 b1 9d bd 30 39 76 bd 9a 02 82 3c f7 d3 5c bc
       -0.0769986 -0.060113132 0.015870381 -0.013478271
000180 e6 2c a4 3c dd 4f e7 bb 43 c3 5b bd 1b c5 6f bd
       0.02004094 -0.007059081 -0.053653013 -0.058537584
000190 67 d7 65 3c 93 72 38 3d e4 2c a5 3c b3 dd 05 be
       0.014028407 0.04503114 0.020163007 -0.13072853
0001a0 aa 82 b5 37 e2 e7 f8 3b e6 d3 24 bc 2d d3 b2 bd
       2.1637727e-05 0.007596002 -0.010060286 -0.08731685
0001b0 ce d8 9a bc 35 70 38 bd 5d 86 b8 3a d8 22 3a bd
       -0.018902209 -0.045028884 0.0014078129 -0.045443386
0001c0 7a 7e 63 bc 4d 79 53 bd c6 20 a7 bd 94 50 b8 bb
       -0.013885135 -0.051629353 -0.08160548 -0.00562484
0001d0 30 ce df bd 2a a9 fc 3c eb a6 cf bd 40 a5 74 3c
       -0.10927999 0.030842382 -0.10139259 0.014931977
0001e0 8c 2c 99 3c c1 d0 ef bd 92 f5 6a 3d fb b0 e3 b9
       0.018698 -0.117097385 0.0573631 -0.00043428675
0001f0 d1 5f e5 bd 2f 74 f4 bd 5b 06 12 bd 96 fa 7f bd
       -0.11199916 -0.11936223 -0.035650592 -0.062494837
000200 fd c1 ad 3c ae e9 35 bc 5b 4a 04 3e 71 0d 46 bd
       0.021210665 -0.011103077 0.1291899 -0.048352662
000210 b4 64 4b 3c 32 47 6b bd 46 ec 03 be 84 ac 73 bd
       0.012414146 -0.057440944 -0.128831 -0.059490696
000220 f5 3b b6 bc 3a a2 52 3b 9d 34 26 be 6a 00 af 38
       -0.022245387 0.0032140152 -0.16231008 8.3447274e-05
000230 c8 0c 64 bd 3a 05 dd bb 26 fa 1f bd 8e 6a 5b bd
       -0.05567625 -0.006745008 -0.03905692 -0.053568415
000240 62 cf 22 bd f4 5d 22 39 a1 63 3a bd 81 79 05 3b
       -0.039748557 0.00015484524 -0.04550517 0.0020366611
000250 ba 89 03 bd 5b 3d 4b bc 5f 15 0a 3d 48 5c 2f 3c
       -0.03211377 -0.012404765 0.033711787 0.010703154
000260 b9 b5 ba bd ad 74 11 bd df 47 98 bd 1c be 6b bd
       -0.09116692 -0.03551166 -0.07435583 -0.05755435
000270 7c b8 18 bd 86 21 8f bc 20 f6 09 3e 1d e4 f7 3b
       -0.037285313 -0.01747204 0.13472795 0.007565035
000280 bb c8 c3 3c 93 91 3b bd f9 d3 7c bd 20 b4 ac 3b
       0.023899427 -0.045793127 -0.06172559 0.005270496
000290 5a 1a 6b 3d 83 38 3a 3c 0c a0 bc 3c bf a3 aa 3c
       0.057398178 0.0113660125 0.023025535 0.020830033
0002a0 0a e5 62 3c 38 fa f9 bc 89 9e 20 be cd cb 74 bc
       0.0138485525 -0.030514821 -0.15685476 -0.014941168
0002b0 72 d9 88 3d 45 f1 f1 bd fd e9 ef bc c9 dd 48 bd
       0.066820994 -0.11813597 -0.029286379 -0.049039636
0002c0 42 61 f7 bc 10 85 36 bb 84 2b 13 be a8 af c5 3c
       -0.030197743 -0.0027850308 -0.14372069 0.024131611
0002d0 97 1a 22 bd 29 4e 8b bd 40 e2 45 bd 5f ec e3 bc
       -0.03957614 -0.06802017 -0.048311472 -0.027822671
0002e0 9a 40 02 bd 08 0c 81 bb 22 7d 4d bd 98 fe de bc
       -0.03179989 -0.003938202 -0.050168164 -0.02722101
0002f0 da 17 f3 3c e7 69 ae bd 11 0c 5c bd 59 95 53 bc
       0.02967446 -0.08516293 -0.053722445 -0.012914025
000300 46 e2 71 bd 36 51 e6 bc c7 76 79 bc 09 be e0 bc
       -0.05905368 -0.028114896 -0.015226073 -0.027434366
000310 ff af 04 3d a0 f5 bf bd 53 4c 29 3c 01 10 5d bd
       0.032394405 -0.09373021 0.0103331385 -0.05397034
000320 19 6a bc bc 75 e7 0a be ff c4 87 bd 4a d3 a5 3d
       -0.02299981 -0.13564856 -0.06629371 0.08096941
000330 fa 66 d3 3b 45 08 34 bc 0f a7 ad bd 01 fe 88 bd
       0.0064514847 -0.0109883 -0.084791295 -0.066890724
000340 b3 f9 7d 3c f9 4d a8 bc 73 f2 d8 b9 12 48 28 3c
       0.015501427 -0.020544993 -0.0004137937 0.010271089
000350 d9 1f 1b bd d9 56 bd 3c 39 3c be bd ed 06 c4 3b
       -0.03787217 0.023112701 -0.0928883 0.005982271
000360 29 b8 01 3d 92 82 16 bd a7 3d b6 3d 80 d3 9c 3b
       0.03166977 -0.036745615 0.08898478 0.004785955
000370 c1 a5 a6 3b a1 49 af 3c c2 41 86 3a 04 b0 94 3d
       0.0050856774 0.021397414 0.0010242986 0.07260135
000380 9a 06 1e bd 93 03 04 3d 43 be c2 bc d6 55 4e bd
       -0.038580514 0.03222997 -0.023772364 -0.05037483
000390 cd 40 86 bd f5 9d fc bd 8b 26 f8 bc 55 26 93 bd
       -0.065553285 -0.123348154 -0.030291816 -0.07185046
0003a0 ae 9e f5 bd 46 04 7d bc c2 9e 87 bc 4c 40 28 3c
       -0.119931564 -0.015442913 -0.016555194 0.010269236
0003b0 e6 55 e6 bd 78 07 33 be e4 9a 56 bc e3 45 e7 bc
       -0.112468526 -0.17483318 -0.013098452 -0.028231567
0003c0 67 db 82 bc 85 cf 5c 3d 12 f0 d1 bd b1 4e 7f bd
       -0.01597376 0.053908844 -0.10250868 -0.062330905
0003d0 e6 4a a2 3c 7f 87 9d bc 1e 94 01 3d ce 6e c0 bd
       0.019811105 -0.019229649 0.031635396 -0.09396134
0003e0 67 dc 7c 3d 80 e2 8d bd c0 fe 45 bd c1 04 5c bd
       0.06173363 -0.06927967 -0.04833865 -0.05371547
0003f0 81 a0 8e bd 59 bb a4 3b 2c 1d 19 bd 1d 52 e0 bc
       -0.069642074 0.0050272164 -0.037381336 -0.027382905
