model_weights/w_824.npy (npy, 516224 bytes, 1 tensors)

array f4 [1, 3, 192, 224]
-0.01998608 -0.015826596 -0.02234659 -0.020385968 -0.0051141004 -0.011442575 -0.012887802 0.004778042
-0.0059870807 0.013981289 -0.02719587 -0.012723531 -0.0066195466 -0.0018848211 0.050717242 -0.0059499633
-0.033752993 -0.0013357311 -0.01949013 0.003839954 -0.012509498 -0.019674806 -0.033598296 -0.027496759
-0.010496716 -0.02997035 -0.016010756 -0.010255637 -0.011358709 -0.024121836 -0.019250246 0.0074348156
0.051556323 0.0052056657 -0.0055725453 -0.017776338 0.0038229472 -0.006153362 0.0050401553 -0.012984375
-0.016663777 -0.016577112 -0.023309989 -0.0006855665 -0.003450227 0.040388044 -0.019464402 -0.012288677
-0.019084781 0.03448071 0.010778505 -0.013863822 0.010961006 -0.010439591 -0.026493462 0.0030990096
-0.0012712355 0.023013294 -0.00596806 -0.013713146 -0.031006835 -0.020581119 0.04207852 0.022216931
0.011648095 0.013928936 -0.019602058 -0.0022583555 -0.0011650894 -0.03169925 -0.014230941 0.023062577
-0.0059589488 0.006118309 -0.012034371 0.018221583 0.07002585 -0.003134554 0.01030239 -0.02212093
0.0013704718 0.013096081 -0.04325406 -0.0023028487 -0.02757838 -0.013303499 0.026504813 -0.009487216
-0.039396767 0.041333344 0.051972065 0.025548393 -0.013404017 -0.026653135 0.06318877 0.042786397
0.0016628092 -0.0087932255 0.00086121925 0.0063043125 0.05085475 0.0070626116 -0.016321236 -0.016110133
0.00090130727 -0.016177688 0.025323149 0.0015613963 -0.0070204553 0.040243324 -0.005581082 -0.0027134572
-0.0025645199 -0.0068510156 -0.014038575 -0.0012348398 0.07038782 -0.008651253 -0.011652194 0.027579267
0.025582997 0.019922746 -0.027701652 -0.031207066 -0.031573128 -0.025715819 0.006252088 -0.0076831235
0.005353199 0.05735655 -0.0123873735 -0.00683422 -0.01624181 0.028339982 0.00048999325 -0.021163587
-0.02247237 0.026754502 0.025408555 -0.010608298 -0.019319447 -0.0027098695 0.00197764 0.012798115
-0.014169379 -0.009692422 -0.009181662 0.009115464 0.002329386 -0.004931631 -0.012906488 -0.00034087294
0.0057499404 -0.007538164 -0.012015066 -0.012715772 -0.011202808 -0.0041998713 -0.017532406 0.05663849
-0.0167422 -0.013731619 -0.013031992 0.041799065 -0.0040105158 -0.010021275 -0.014298007 -0.033587534
-0.02552378 -0.022587616 -0.04095096 -0.0009391486 -0.027115125 -0.018543558 0.011794672 -0.022582462
-0.020246666 0.011696739 -0.011580589 -0.01724017 -0.025016306 0.0072194915 -0.012137467 -0.011128315
-0.008084881 -0.019128328 -0.0024925584 -0.020645997 -0.031780496 -0.025037313 -0.020779606 0.03215208
-0.033337608 0.048812155 -0.007536792 -0.01873864 -0.013449782 -0.015073822 0.00016976164 -0.02712931
-0.013853961 -0.0025088252 -0.0093312 -0.009649697 -0.019993763 -0.03370151 -0.018644236 -0.006458135
0.061202627 0.006736333 0.0402319 -0.0073138224 -0.0046295 -0.013715061 -0.030496983 -0.011855667
0.016962506 -0.03198989 -0.012386882 0.0045640706 -0.012319868 0.01610674 -0.012729215 -0.0152411
0.011544107 -0.010737734 -0.026903821 0.029109368 0.01859179 0.024184112 -0.012182493 0.019760348
-0.011796641 -0.021366483 0.0036393525 -0.0086378055 0.01566682 -0.024545047 -0.012525351 0.028240465
0.0057737497 -0.006808561 0.022531206 -0.008893265 -0.008132517 0.024124414 -0.02382646 -0.01700688
0.0071712243 -0.012118492 -0.01329751 0.0041230205 -0.008002081 -0.010248558 0.0017990337 -0.020695223
00000000: d9b9 a3bc c7a6 81bc 3210 b7bc 7900 a7bc
00000010: 2f94 a7bb a379 3bbc 5c27 53bc 1f91 9c3b
00000020: 462f c4bb c711 653c e0c9 debc 5b76 50bc
00000030: c8e8 d8bb 1a0c f7ba e2bc 4f3d e9f7 c2bb
00000040: 9440 0abd b313 afba c4a9 9fbc bda7 7b3b
00000050: a3f4 4cbc 0f2d a1bc 5e9e 09bd e240 e1bc
00000060: 6bfa 2bbc 6184 f5bc fd28 83bc 4207 28bc
00000070: e119 3abc 289b c5bc b1b2 9dbc c19f f33b
00000080: b92c 533d 4a94 aa3b e699 b6bb af9f 91bc
00000090: 698a 7a3b 24a2 c9bb e327 a53b 6abc 54bc
000000a0: 7982 88bc b9cc 87bc 97f4 bebc 97b7 33ba
000000b0: 341d 62bb ef6d 253d cf73 9fbc 7256 49bc
000000c0: b057 9cbc a53b 0d3d 5498 303c 1625 63bc
000000d0: cb95 333c d10a 2bbc d108 d9bc c118 4b3b
000000e0: 969f a6ba 6086 bc3c b78f c3bb 1aad 60bc
000000f0: 0c02 febc bc99 a8bc 875a 2c3d 4800 b63c
00000100: a7d7 3e3c 3136 643c 7f94 a0bc eb00 14bb
00000110: eab5 98ba 13d7 01bd e528 69bc bbed bc3c
00000120: 4943 c3bb 197c c83b cf2b 45bc 6e45 953c
00000130: b669 8f3d 176d 4dbb 5bcb 283c f436 b5bc
00000140: 67a1 b33a f290 563c 2b2b 31bd 64eb 16bb
00000150: 0eec e1bc ebf6 59bc 9f20 d93c 4570 1bbc
00000160: 815e 21bd 274d 293d a9e0 543d dd4a d13c
00000170: 869c 5bbc ad57 dabc 1d69 813d ca40 2f3d
00000180: 9ef2 d93a 7611 10bc 72c3 613a 6894 ce3b
00000190: 124d 503d 7b6d e73b 1db4 85bc 66f9 83bc
000001a0: b545 6c3a 1287 84bc 7e72 cf3c c4a7 cc3a
000001b0: d90b e6bb 2fd6 243d 82e1 b6bb 42d4 31bb
000001c0: 8111 28bb 7c7e e0bb 0d02 66bc 59da a1ba
000001d0: 7d27 903d fcbd 0dbc d8e8 3ebc eaed e13c
000001e0: 6f93 d13c 0735 a33c 93ee e2bc f6a5 ffbc
000001f0: d352 01bd fba9 d2bc 51de cc3b b6c2 fbbb
00000200: e369 af3b b4ee 6a3d 69f4 4abc 98f1 dfbb
00000210: 8b0d 85bc 4029 e83c e472 003a 425f adbc
00000220: fa17 b8bc 422c db3c 9a25 d03c 6dce 2dbc
00000230: d143 9ebc 1198 31bb 4b9b 013b 2faf 513c
00000240: af26 68bc f7cc 1ebc af6e 16bc 0759 153c
00000250: 9da8 183b 8599 a1bb bc75 53bc 31b7 b2b9
00000260: ff69 bc3b b402 f7bb d7da 44bc d055 50bc
00000270: fb8b 37bc 139f 89bb 1fa0 8fbc c3fd 673d
00000280: f026 89bc 96fa 60bc 2384 55bc 7f35 2b3d
00000290: a56a 83bb 4630 24bc 3042 6abc 1593 09bd
000002a0: 3f17 d1bc aa09 b9bc 32bc 27bd 3231 76ba
000002b0: 8a20 debc a9e8 97bc 713e 413c dbfe b8bc
000002c0: 56dc a5bc aea3 3f3c 83bc 3dbc 423b 8dbc
000002d0: ffee ccbc 7c91 ec3b 3adc 46bc 8953 36bc
000002e0: 7376 04bc 03b3 9cbc 315a 23bb cb21 a9bc
000002f0: 442c 02bd 0d1b cdbc fe39 aabc e6b1 033d
00000300: 048d 08bd 41ef 473d 32f7 f6bb c781 99bc
00000310: 795c 5cbc 31f8 76bc 0b02 3239 493e debc
00000320: b9fb 62bc 1a6b 24bb e4e1 18bc c319 1ebc
00000330: f6c9 a3bc 980a 0abd ccbb 98bc c39e d3bb
00000340: 9baf 7a3d 75bc dc3b 34ca 243d caa8 efbb
00000350: 10b3 97bb 23b5 60bc cfd4 f9bc 463e 42bc
00000360: f4f4 8a3c d507 03bd 59f2 4abc 338e 953b
00000370: 46d9 49bc 48f2 833c 338e 50bc cfb5 79bc
00000380: 7f23 3d3c 52ed 2fbc 6765 dcbc c576 ee3c
00000390: cf4d 983c c21d c63c 1499 47bc 74e0 a13c
000003a0: b346 41bc c308 afbc 3482 6e3b 9585 0dbc
000003b0: b457 803c b212 c9bc 2137 4dbc 8c58 e73c
000003c0: b931 bd3b 591a dfbb 5d93 b83c 0fb5 11bc
000003d0: 403e 05bc 90a0 c53c b52f c3bc 0352 8bbc
000003e0: 97fc ea3b a48c 46bc cddd 59bc 671a 873b
000003f0: 291b 03bc 91e9 27bc 8ecd eb3a 0789 a9bc
