model_weights/w_847.npy (npy, 688256 bytes, 1 tensors)

array f4 [3, 1, 224, 256]
0	0xbcb91f6c	-0.02259799
1	0xbc9b3257	-0.018944902
2	0x3d40c208	0.047060043
3	0x3c0f8922	0.008760722
4	0x3d245475	0.040119607
5	0xbcdc5b9e	-0.026899155
6	0x3bf04775	0.007332737
7	0xbadf5b53	-0.0017040767
8	0xbc9070d8	-0.017631933
9	0xbb2c3e06	-0.0026282086
10	0x3d8b5366	0.06803016
11	0x3c8bbbe0	0.01705736
12	0x3a1f3cce	0.0006074429
13	0xbd0c4913	-0.034249377
14	0xbc622a67	-0.013804055
15	0xbcc05cfd	-0.02348184
16	0xbc231427	-0.009953535
17	0x3c36ca48	0.011156626
18	0xbba9810e	-0.005172855
19	0xbbee9ac9	-0.0072816354
20	0x3aa2c7ca	0.0012419161
21	0x3c632033	0.013862657
22	0xbc795ca4	-0.015219841
23	0xbc5e987d	-0.013586161
24	0x3c3f0510	0.011658922
25	0x3b040f7d	0.0020150833
26	0x3cf6e3bd	0.030137891
27	0x3c0a6028	0.008445777
28	0x3c73e9aa	0.014887253
29	0xbc67e0fe	-0.014152763
30	0x3b699c8b	0.0035646285
31	0x3b6e7b03	0.0036389239
32	0xbb8b7b1e	-0.00425662
33	0xbcbd1943	-0.023083335
34	0xbb458baf	-0.0030143072
35	0xbc1249a6	-0.008928692
36	0x3cc3f8d9	0.02392237
37	0xbcc5aec5	-0.024131188
38	0xbb9f18ad	-0.0048552365
39	0x3c006a9c	0.007837918
40	0xbb9b6810	-0.00474263
41	0xbc810d0e	-0.015753295
42	0xbd01febf	-0.031737085
43	0xbb3ae01e	-0.0028514932
44	0xbc8e1987	-0.017346157
45	0x3c8a745c	0.016901188
46	0x3b5f3d40	0.0034063607
47	0xbc5da147	-0.013527221
48	0x3c199713	0.009374398
49	0xbc480e75	-0.012210478
50	0x3c908c64	0.017645068
51	0x3c3d914b	0.011570285
52	0xbc7bad91	-0.015361206
53	0x3b6cbad6	0.0036122105
54	0x3d1b74b7	0.037953105
55	0x3d3b517a	0.045732
56	0x3abbec57	0.0014337403
57	0xbca9d1cd	-0.020729924
58	0xbc06bc5d	-0.00822362
59	0xbc3eec1e	-0.011652974
60	0xbc5ff42d	-0.013669056
61	0xbbe47b68	-0.006972719
62	0xb8df02ed	-0.000106340136
63	0x3bcf7432	0.00633099
64	0xbcb3b7ef	-0.021938292
65	0xbca25d0e	-0.019819763
66	0xbc3d21ab	-0.011543672
67	0xbc1aab76	-0.009440294
68	0xbb17e195	-0.002317523
69	0x3c12fafa	0.00897097
70	0xbca51417	-0.020151181
71	0xbb8498e8	-0.004046548
72	0x3c264c85	0.01015008
73	0x3bd3be91	0.0064619263
74	0xbba88e94	-0.0051439498
75	0xbc36aa51	-0.011149005
76	0xbcb5baee	-0.022183862
77	0x3bfa73d7	0.0076432037
78	0x3c74193c	0.0148985945
79	0xbc48dfea	-0.0122604165
80	0x3c167f33	0.0091856
81	0x3c221638	0.009892993
82	0xbc910f42	-0.01770747
83	0x3d504f83	0.05085708
84	0xbc3bf91b	-0.011472966
85	0xbb9c8e35	-0.0047776946
86	0xbbc1007a	-0.0058899494
87	0x3c338d9f	0.010959058
88	0xbcb4e6c0	-0.022082686
89	0xbc01ccea	-0.0079223905
90	0xbc41b177	-0.011822096
91	0xbc96a211	-0.018387826
92	0xbd0f2086	-0.034943126
93	0x3cee59f2	0.029095624
94	0x3a95c37d	0.0011426058
95	0x3c2d54db	0.010579313
96	0xbc80249d	-0.015642459
97	0xbce2ad99	-0.027670668
98	0xbcaf8405	-0.021425257
99	0x3c2873de	0.010281531
100	0xbc0a9bfb	-0.00846004
101	0xbc44765a	-0.011991108
102	0xbc4819b4	-0.012213159
103	0x3c64cd81	0.013965012
104	0xbc386899	-0.011255407
105	0xbc901e6e	-0.017592635
106	0x3c74894a	0.01492531
107	0xbca10ab2	-0.01965842
108	0xbc8fd788	-0.017558828
109	0x3cd64d9e	0.026160058
110	0x3bce7d13	0.006301531
111	0x3c2dab2e	0.010599894
112	0xbc8489ae	-0.016178932
113	0xbcafd58c	-0.021464132
114	0x3a4d3583	0.0007828103
115	0xbc6edbb7	-0.014578751
116	0x3bc5fe99	0.0060423133
117	0x3aa9a16b	0.0012941783
118	0xbaf751cc	-0.0018868982
119	0x3c5204b2	0.012818502
120	0x3c28a0bc	0.010292228
121	0x3c01d34e	0.007923914
122	0x3c7cfcca	0.015441129
123	0xbc9f65d2	-0.019457731
124	0x3c688a3c	0.014193114
125	0x3c8eabbb	0.017415872
126	0x3ae6f6db	0.0017621176
127	0xbc83c6f9	-0.016086088
128	0x3cc51400	0.024057388
129	0xbaf03377	-0.0018325885
130	0x3b9d0de8	0.0047929175
131	0x3c66adaf	0.014079495
132	0xbc892a0a	-0.016743679
133	0x3b70f959	0.0036769717
134	0xbc7b56ac	-0.015340488
135	0x3c6c8181	0.014435173
136	0x3c3b8d48	0.011447258
137	0xba4af0c8	-0.00077415677
138	0xbca80fdd	-0.020515377
139	0x3bc8c6d3	0.0061272173
140	0x3c211cca	0.009833524
141	0xba89cd80	-0.0010513514
142	0xbd1f0f1d	-0.038832773
143	0xbaf51fd9	-0.0018701508
144	0xbcc7c4a9	-0.024385767
145	0x3c604e61	0.013690562
146	0x3ba7f961	0.005126164
147	0x3ceea870	0.029133052
148	0x3baae73d	0.005215554
149	0xbca984d4	-0.02069322
150	0x3c45f622	0.012082608
151	0xbc8e05b6	-0.017336708
152	0x3d011aa6	0.031519555
153	0x3bfb7a3a	0.0076744827
154	0xbb2d8766	-0.0026478409
155	0xbb80a6b3	-0.003926122
156	0xbcd68fa6	-0.026191544
157	0xbab13d22	-0.0013522247
158	0x3c2a60e9	0.010399082
159	0xbc9416be	-0.01807725
160	0x3ca0afbd	0.019615049
161	0x3d2edd76	0.04269167
162	0xbaadc907	-0.0013258763
163	0xbbac8358	-0.005264681
164	0x3c20c348	0.009812184
165	0xbb97c198	-0.0046312325
166	0x3b69c6ea	0.003567154
167	0xbd0661f8	-0.032808274
168	0xbc20fc88	-0.009825833
169	0xbce4697a	-0.027882326
170	0xbb0c23a0	-0.002138354
171	0x3aeb29cb	0.0017941532
172	0xbcd4a6ba	-0.025958408
173	0xbbafcc94	-0.005364964
174	0xbb1af586	-0.0023644879
175	0xbbeaeffb	-0.007169721
176	0xbb9da6e6	-0.0048111556
177	0xbb71de92	-0.0036906344
178	0xbcc8d8a0	-0.024517357
179	0x3b1c579e	0.0023855935
180	0x3cc1bb0e	0.023648765
181	0xbc8aaf82	-0.016929392
182	0xbaa69b97	-0.0012711164
183	0xbcded087	-0.027199043
184	0x3bd2e63b	0.006436137
185	0xbbb19301	-0.0054191356
186	0xbc0f9bc1	-0.008765162
187	0x3cff2e52	0.031150017
188	0x3c51d8ce	0.012808038
189	0xbce2ad7d	-0.027670616
190	0xbc92b9dd	-0.017910892
191	0x3ba9c452	0.005180874
192	0xbc25091d	-0.010072974
193	0xbbc57fc5	-0.006027194
194	0xbc08e4a3	-0.0083552925
195	0xbb8ceb88	-0.0043005385
196	0xbd0fc7ff	-0.03510284
197	0xba129538	-0.00055916933
198	0xbc6845bf	-0.014176785
199	0x3c4e618f	0.012596502
200	0xbd06d887	-0.03292134
201	0xbc847bfc	-0.016172402
202	0x3c180052	0.00927742
203	0xb8e81b08	-0.00011067657
204	0x3caa1d10	0.020765811
205	0xbcc8989a	-0.024486829
206	0x3ce1e3c3	0.027574426
207	0xbc833534	-0.01601658
208	0xbc4c2b82	-0.012461545
209	0xbbde4a4f	-0.0067837606
210	0x3a92e2fd	0.0011206564
211	0xbc2628f6	-0.010141602
212	0x3b86ffce	0.0041198498
213	0x3c0f2e25	0.008739029
214	0xbca6f43b	-0.02038013
215	0x3c15f6be	0.009153066
216	0x3b80f6dd	0.0039356784
217	0xbc4b44db	-0.012406553
218	0xbbc394e9	-0.005968679
219	0xba58aaf6	-0.0008265221
220	0x3c1e3ddb	0.009658302
221	0x3d016e67	0.03159943
222	0xbd00fd8b	-0.031491797
223	0x3a7dd769	0.00096832827
224	0xbc0fdfb0	-0.008781359
225	0x3bb67f8c	0.005569404
226	0xbcae4e97	-0.021277709
227	0x3d5ebb76	0.054377995
228	0xbb90dc79	-0.0044208136
229	0xbb66925a	-0.0035182447
230	0xbb8d94c2	-0.004320712
231	0xbc85f1c1	-0.016350629
232	0x3ce38f2f	0.027778236
233	0x3d582003	0.052764904
234	0xbc205d9b	-0.009787942
235	0x3d099c79	0.03359649
236	0xbc454c8e	-0.012042178
237	0xbc27d571	-0.0102437595
238	0xbb6f1aff	-0.0036484597
239	0xbc5eee62	-0.01360664
240	0xbc8002fc	-0.015626423
241	0xbb1bd6e1	-0.00237792
242	0x3cd288f2	0.025700066
243	0x3c8c89d6	0.017155569
244	0xbc08b1f2	-0.008343207
245	0xbc5c399f	-0.013441472
246	0xbc4353a8	-0.011921801
247	0xbd03f435	-0.032215316
248	0xbb918e90	-0.0044420436
249	0x39826206	0.00024868565
250	0xbc375d34	-0.011191655
251	0x3c40a516	0.01175811
252	0x3a5ab795	0.0008343396
253	0xbc94223e	-0.018082734
254	0x3bcb7efc	0.006210206
255	0xbcd0004c	-0.025390767
