model_weights/w_858.npy (npy, 896 bytes, 1 tensors)

array f4 [192]
0	0xbdce80ce	-0.10083161
1	0xbafdecd8	-0.0019372953
2	0xbe552495	-0.20814736
3	0xbe1cb337	-0.1530274
4	0xbcd39154	-0.025826134
5	0xbde46a2f	-0.111530654
6	0xbdaf2248	-0.085514605
7	0xbd39b307	-0.04533675
8	0xbd16ff14	-0.036864355
9	0x3d506768	0.050879866
10	0x3d016921	0.0315944
11	0x3ef392cc	0.47572935
12	0x3e1c9565	0.15291364
13	0xbdaf5a2d	-0.085621215
14	0xbdb5562d	-0.08854327
15	0xbe296db2	-0.16545752
16	0xbe188983	-0.14896207
17	0xbc757390	-0.0149811655
18	0xbe25ca15	-0.1619037
19	0xbddaa114	-0.106752545
20	0xbcce5b9a	-0.025190163
21	0xbe0b1661	-0.13582756
22	0xbe08faf0	-0.13376975
23	0xbd8e4617	-0.06946962
24	0xbe317883	-0.17331128
25	0xbd777442	-0.060413606
26	0xbd9878a7	-0.074448876
27	0xbdfe525a	-0.12418051
28	0xbd5a507c	-0.053299412
29	0xbe302593	-0.17201833
30	0xbd842bda	-0.064536765
31	0xbdbd0be5	-0.09230784
32	0xbe142937	-0.14468847
33	0xbe53965e	-0.2066283
34	0xbcdbb3bd	-0.026819104
35	0xbc54dfce	-0.012992812
36	0xbd4c448f	-0.04987007
37	0xbdb3e4c5	-0.08783869
38	0x3d242ca1	0.040081624
39	0xbd4aafbf	-0.04948401
40	0xbd8a565c	-0.06754753
41	0xbd3fff01	-0.04687405
42	0xbdaee1fe	-0.08539198
43	0xbc493bed	-0.012282354
44	0x3eadc075	0.33935896
45	0xbdc4b563	-0.09604909
46	0xbde50c8f	-0.11184036
47	0xbd9f83d6	-0.077888176
48	0xbd5aeb56	-0.05344709
49	0xbe99b2e0	-0.30019283
50	0xbe1094c4	-0.1411925
51	0xbe1a9dd8	-0.15099275
52	0x3f043a86	0.516518
53	0xbe4e59f3	-0.201515
54	0xbe51c53f	-0.204854
55	0xbd43cb8a	-0.04780153
56	0x3eafb123	0.34314832
57	0xbe0e683d	-0.13906951
58	0xbd9c658a	-0.076365545
59	0xbdc7a84a	-0.097488955
60	0xbdf921a2	-0.12164618
61	0xbda930ea	-0.08261283
62	0xbe29ee3d	-0.16594787
63	0xbdd05bfd	-0.10173795
64	0xbd85a197	-0.065249614
65	0xbdfd0e67	-0.12356263
66	0xbda82d72	-0.08211793
67	0xbdb8d18a	-0.090243414
68	0xbd8402d0	-0.06445849
69	0xbd964c23	-0.07338741
70	0xbddc1a0a	-0.10747154
71	0xbd1854e0	-0.037190318
72	0xbcf15e5f	-0.029463945
73	0xbe0c488e	-0.13699552
74	0xbdd9fff7	-0.106445245
75	0x3dd131bf	0.102145664
76	0xbcf4138b	-0.029794475
77	0xbe303241	-0.1720667
78	0xbde7a6bd	-0.113111
79	0xbdbd62fb	-0.09247395
80	0xbd1fe951	-0.039040867
81	0xbddb4e62	-0.1070831
82	0xbdb05262	-0.08609463
83	0xbd62eb91	-0.055400435
84	0xbda08092	-0.07837023
85	0xbdd2cca2	-0.10292937
86	0xbca4e7fa	-0.020130146
87	0x3c79cdf6	0.015246859
88	0xbcee4cdd	-0.029089386
89	0xbe370647	-0.17873488
90	0xbec8b17a	-0.39197904
91	0x3e237205	0.15961464
92	0xbe003214	-0.12519103
93	0xbdbf45aa	-0.09339459
94	0xbe19c3c0	-0.15016079
95	0xbe2ba3d4	-0.16761714
96	0xbddecb86	-0.10878663
97	0xbe39824f	-0.18116115
98	0xbcd51c78	-0.026014552
99	0xbe2d00a6	-0.16894779
100	0xbc22155e	-0.00989279
101	0xbde44312	-0.11145605
102	0xbcf27b55	-0.029599825
103	0xbe177eb1	-0.14794423
104	0xbda9bf27	-0.082884125
105	0xbdadfa55	-0.08495013
106	0xbda480c0	-0.080323696
107	0x3d148da5	0.036267895
108	0xbcda7ac1	-0.026669862
109	0xbe30f3ea	-0.17280546
110	0xbe0d67ed	-0.13809176
111	0xbe298e7e	-0.16558263
112	0xbc9e55ad	-0.019327963
113	0x3b730467	0.0037081481
114	0xbdaac04a	-0.083374575
115	0xbdb80401	-0.08985139
116	0xbd3b126f	-0.045671877
117	0xbe032ce6	-0.12810096
118	0xbdabac55	-0.08382479
119	0xbe347899	-0.1762413
120	0xbe0188ee	-0.12649891
121	0xbd5121d6	-0.05105766
122	0xbde79a3a	-0.11308713
123	0xbc80be82	-0.015715841
124	0xbe3f4f5c	-0.18682617
125	0xbd3ba74d	-0.045813847
126	0xbdb5bed7	-0.088742904
127	0xbcfc9eb4	-0.030837394
128	0xbde37fc6	-0.11108355
129	0x3d66d89e	0.056358926
130	0xbdb9f23e	-0.09079407
131	0xbe0ef89a	-0.13962021
132	0x3d88e563	0.06684377
133	0xbd8f746e	-0.07004629
134	0xbe41b973	-0.189184
135	0xbda92e13	-0.08260741
136	0xbd312bf9	-0.043254826
137	0xbde5ffc3	-0.11230423
138	0xbd9af7c5	-0.075667895
139	0xbdb6e6b1	-0.0893072
140	0xbcbc96f0	-0.023021191
141	0xbe062170	-0.13098693
142	0x3d8bd80b	0.06828316
143	0x3d6bb156	0.057542168
144	0x3d84795e	0.064684615
145	0xbd0cbf29	-0.034361992
146	0xbe22be52	-0.15892914
147	0xbd9f192c	-0.07768473
148	0x3dd903e1	0.10596443
149	0xbe26c399	-0.16285552
150	0xbe1a9a80	-0.15098
151	0xbdb64706	-0.089002654
152	0xbe5429c8	-0.20719063
153	0xbdf1ec8a	-0.11812694
154	0xbe893b76	-0.26803178
155	0xbd765010	-0.060134947
156	0x3ec981f5	0.39356962
157	0xbcac1480	-0.021005869
158	0xbe07dd0d	-0.13267918
159	0xbe489e65	-0.19591673
160	0xbddafc94	-0.10692707
161	0xbe1a7f11	-0.15087534
162	0x3e887eff	0.2665939
163	0x3c9fdf92	0.019515786
164	0xbce81c84	-0.02833391
165	0x3c6cb755	0.014448007
166	0x3ce7b125	0.028282711
167	0xbe137ab5	-0.14402278
168	0x3dc3a237	0.095524244
169	0xbd1bf528	-0.038075596
170	0xbdf418e7	-0.11918812
171	0xbdf66450	-0.12030852
172	0xbc54fedd	-0.013000217
173	0x3e210dd3	0.1572793
174	0xbdec47e4	-0.115371495
175	0xbd85b33a	-0.065283254
176	0xbdbf8c6f	-0.093529575
177	0xbe4de77a	-0.20107833
178	0xbeacb5b3	-0.33732376
179	0xbd655b0f	-0.055995043
180	0x3e6c2940	0.2306261
181	0xbb1e9962	-0.002420031
182	0x3da813e1	0.082069166
183	0xbd928d78	-0.07155889
184	0xbd22e4dc	-0.03976904
185	0xbcb82d23	-0.02248246
186	0x3da8e91e	0.082475886
187	0xbe517db5	-0.2045811
188	0x3c994ec4	0.018714316
189	0xbe19b7db	-0.15011542
190	0xbdb74320	-0.0894835
191	0xbe0e1a7d	-0.13877292
