model_weights/w_894.npy (npy, 6272 bytes, 1 tensors)

array f4 [1536]
0.013781665 0.018250823 0.019261142 0.022007147 -0.0013755213 0.012499885 0.045323197 -0.0051916284
-0.006827682 0.015293166 0.059026565 -0.009498209 0.031548634 -0.0039399024 0.018352438 0.060112175
0.017662864 0.025530363 0.034801744 0.025911657 0.027219245 0.03926357 0.028969467 0.028812792
0.001633141 0.025628971 0.03636182 0.027034266 0.015363156 0.010586002 -0.0045012305 0.02077056
-0.00029604387 0.00042588243 0.003055251 0.02750062 -0.0024778005 0.058489945 -0.012389985 0.010919256
0.054631304 0.00839205 0.0022510316 0.031027058 0.029063465 0.021816345 0.0010180331 0.0015714724
0.013323652 0.031307146 0.0050535453 0.025595924 0.011742237 -0.00952569 0.029363273 0.017289823
0.024857799 0.00024296767 -0.013569558 -0.0025957832 0.023128925 0.014071908 0.041534107 0.00012980652
0.0261607 0.008692026 0.036316536 0.026587201 0.041264314 0.02779273 0.016482512 0.012751829
0.010952298 0.026188295 0.024615178 0.016406076 0.026511583 -0.011518386 0.047853187 0.028371966
0.037678618 -0.008849992 0.019931726 0.011765755 0.012126672 0.0050193067 0.019763015 0.0013538954
0.03432996 -0.0153832445 -0.0013847442 0.040728908 0.003738053 0.020022739 0.025629519 0.03826668
0.02368446 -0.0029509855 -0.00016965173 0.022461202 0.024564942 0.031985182 0.054675903 0.026393216
0.02571852 0.0083111 0.02165647 0.007399035 0.014999793 -0.022673711 0.022058582 0.027486322
-0.0036866604 0.017725913 0.018507708 0.013603987 0.025060333 0.034403257 0.019940497 0.033617243
-0.011983833 0.01968542 -0.0064073596 0.01445854 -0.004256483 -0.00031430784 0.029443467 -0.00806994
0.021129236 0.016106784 0.0148115605 0.009997022 0.028534511 0.027442161 0.0118332645 0.02285823
0.025111329 0.020206667 0.030693667 0.016751485 0.013281679 0.042843446 0.035813864 0.0149779385
0.009074633 0.0030550982 0.018116912 0.023642434 0.018078355 0.03808028 0.02619158 0.044156473
-0.014172916 0.028800588 0.03486036 0.013157615 0.0150511665 0.013477231 0.042997077 -0.012881946
0.015529577 -0.00071560056 0.03930214 0.0333856 0.005831983 0.0074719815 0.025032418 -0.011444136
-0.013094111 0.017284408 0.055029623 0.013556926 0.019097276 0.02158457 0.026049385 -0.00019680514
-0.006583499 0.012322226 0.007592348 -0.0025478064 0.017901426 0.025133941 -0.01625223 0.027807757
0.01263445 0.030365352 0.005714251 -0.006434719 0.015963452 0.031782642 0.029999776 0.034995764
0.026166275 0.029805234 -0.00021847243 0.03035018 0.0041078334 0.029609675 0.0017320536 0.017417226
-0.0017463894 -0.0067070206 -0.008486949 0.020824606 0.004650065 0.024850253 0.013104315 0.029237932
0.003259273 0.0013512787 0.016931774 0.0047917604 0.008374148 0.0027809802 -0.0051158536 0.024946954
0.027709369 0.00972814 0.0019590103 0.025259929 0.031356707 0.023510672 -0.008118054 -0.013818784
0.026109057 0.03141894 0.029437806 0.040503103 0.008109607 -0.004533429 -0.0012854344 0.034337435
0.041437954 0.030743001 0.02247363 0.0022406983 0.027769223 0.03358655 0.013171384 -0.0031185825
0.031200126 0.002845585 0.03856706 0.018122008 0.016231285 -0.0006546627 0.009446132 0.040217645
0.049558982 0.015200229 0.035419546 0.011127565 0.012457462 0.0041785436 0.023319868 0.02031898
00000000: 7ecc 613c c082 953c 8bc9 9d3c 5548 b43c
00000010: d64a b4ba 51cc 4c3c d1a4 393d 891e aabb
00000020: bfba dfbb 3090 7a3c d7c5 713d 609e 1bbc
00000030: 2439 013d 4c1a 81bb da57 963c 2f38 763d
00000040: b6b1 903c 0d25 d13c 468c 0e3d af44 d43c
00000050: e5fa de3c d6d2 203d 6051 ed3c ce08 ec3c
00000060: 1e0f d63a d9f3 d13c 22f0 143d f776 dd3c
00000070: bfb5 7b3c e970 2d3c 0f7f 93bb 0527 aa3c
00000080: 5636 9bb9 f948 df39 9b3a 483b fb48 e13c
00000090: 9862 22bb 2793 6f3d 5dff 4abc aee6 323c
000000a0: 13c5 5f3d cf7e 093c 0b86 133b 752c fe3c
000000b0: 8116 ee3c 31b8 b23c 866f 853a ddf9 cd3a
000000c0: 724b 5a3c ec3b 003d 3698 a53b 8bae d13c
000000d0: 8362 403c a411 1cbc 3f8b f03c 63a3 8d3c
000000e0: 95a2 cb3c 23c5 7e39 da52 5ebc 041e 2abb
000000f0: df78 bd3c dc8d 663c ab1f 2a3d ac1c 0839
00000100: f74e d63c 0069 0e3c a6c0 143d 67cd d93c
00000110: c504 293d 94ad e33c 5506 873c 0ced 503c
00000120: 4471 333c d688 d63c c5a5 c93c 0966 863c
00000130: d22e d93c 9db7 3cbc b401 443d 536c e83c
00000140: e554 1a3d 8fff 10bc dc47 a33c 27c5 403c
00000150: f3ae 463c ff78 a43b 0ce6 a13c 3175 b13a
00000160: 929d 0c3d 010a 7cbc 4e80 b5ba 5bd3 263d
00000170: 1ffa 743b ba06 a43c fff4 d13c 86bd 1c3d
00000180: ea05 c23c 5265 41bb 8ae4 31b9 8e00 b83c
00000190: 6b3c c93c e502 033d d7f3 5f3d 9636 d83c
000001a0: a5af d23c 482b 083c e968 b13c 9b73 f23b
000001b0: b1c1 753c 38be b9bc 33b4 b43c ff2a e13c
000001c0: e69b 71bb ef35 913c 7a9d 973c 42e3 5e3c
000001d0: 544b cd3c 6eea 0c3d 415a a33c 3cb2 093d
000001e0: d757 44bc 5143 a13c d4f4 d1bb 83e3 6c3c
000001f0: f879 8bbb afc9 a4b9 6d33 f13c c837 04bc
00000200: 3817 ad3c 60f2 833c 30ac 723c 8dca 233c
00000210: 35c1 e93c 62ce e03c 4fe0 413c 2f41 bb3c
00000220: 46b6 cd3c 7488 a53c 4971 fb3c 693a 893c
00000230: 669b 593c 9c7c 2f3d 8fb1 123d 0766 753c
00000240: c5ad 143c 0b38 483b eb69 943c c7ad c13c
00000250: 0f19 943c 11fa 1b3d b98f d63c 6bdd 343d
00000260: 8535 68bc 36ef eb3c bdc9 0e3d 0a93 573c
00000270: 2b99 763c 9bcf 5c3c b41d 303d cc0e 53bc
00000280: c46f 7e3c 2497 3bba 48fb 203d 57bf 083d
00000290: 381a bf3b 86d7 f43b c910 cd3c 2f80 3bbc
000002a0: af88 56bc 0898 8d3c be66 613d de1d 5e3c
000002b0: e471 9c3c 20d2 b03c 8565 d53c 7a5d 4eb9
000002c0: 64ba d7bb 29e3 493c 3bc9 f83b 19f9 26bb
000002d0: 03a6 923c b2e5 cd3c 6623 85bc 18cd e33c
000002e0: b900 4f3c c2c0 f83c 9d3e bb3b 56da d2bb
000002f0: c9c5 823c 842e 023d 17c2 f53c b857 0f3d
00000300: a85a d63c 1b2a f43c bf15 65b9 f1a0 f83c
00000310: 019b 863b fd8f f23c 1306 e33a 92ae 8e3c
00000320: 1be7 e4ba 91c6 dbbb d80c 0bbc 5d98 aa3c
00000330: 935f 983b c292 cb3c 7bb3 563c 6384 ef3c
00000340: 8799 553b 641d b13a 81b4 8a3c 3304 9d3b
00000350: b933 093c 1b41 363b e4a2 a7bb 8e5d cc3c
00000360: c2fe e23c c762 1f3c bd62 003b e9ed ce3c
00000370: e46f 003d 7499 c03c 9601 05bc 2e68 62bc
00000380: a9e2 d53c 25b1 003d 8e27 f13c 95e6 253d
00000390: 28de 043c 298d 94bb 057c a8ba 69a5 0c3d
000003a0: d8ba 293d bfd8 fb3c 9e1a b83c aed8 123b
000003b0: 487c e33c 0d92 093d cacc 573c 2261 4cbb
000003c0: 6897 ff3c ff7c 3a3b 7ef8 1d3d 9b74 943c
000003d0: 79f7 843c ac9d 2bba f3c3 1a3c 42bb 243d
000003e0: 5cfe 4a3d 620a 793c 1614 113d 6450 363c
000003f0: 621a 4c3c 2aec 883b 4f09 bf3c fd73 a63c
